node {
  name: "global_step"
  op: "Variable"
  attr {
    key: "_output_shapes"
    value {
      list {
        shape {
        }
      }
    }
  }
  attr {
    key: "container"
    value {
      s: ""
    }
  }
  attr {
    key: "dtype"
    value {
      type: DT_INT64
    }
  }
  attr {
    key: "shape"
    value {
      shape {
      }
    }
  }
  attr {
    key: "shared_name"
    value {
      s: ""
    }
  }
}
node {
  name: "global_step/Initializer/zeros"
  op: "Const"
  attr {
    key: "_class"
    value {
      list {
        s: "loc:@global_step"
      }
    }
  }
  attr {
    key: "_output_shapes"
    value {
      list {
        shape {
        }
      }
    }
  }
  attr {
    key: "dtype"
    value {
      type: DT_INT64
    }
  }
  attr {
    key: "value"
    value {
      tensor {
        dtype: DT_INT64
        tensor_shape {
        }
        int64_val: 0
      }
    }
  }
}
node {
  name: "global_step/Assign"
  op: "Assign"
  input: "global_step"
  input: "global_step/Initializer/zeros"
  attr {
    key: "T"
    value {
      type: DT_INT64
    }
  }
  attr {
    key: "_class"
    value {
      list {
        s: "loc:@global_step"
      }
    }
  }
  attr {
    key: "_output_shapes"
    value {
      list {
        shape {
        }
      }
    }
  }
  attr {
    key: "use_locking"
    value {
      b: true
    }
  }
  attr {
    key: "validate_shape"
    value {
      b: true
    }
  }
}
node {
  name: "global_step/read"
  op: "Identity"
  input: "global_step"
  attr {
    key: "T"
    value {
      type: DT_INT64
    }
  }
  attr {
    key: "_class"
    value {
      list {
        s: "loc:@global_step"
      }
    }
  }
  attr {
    key: "_output_shapes"
    value {
      list {
        shape {
        }
      }
    }
  }
}
node {
  name: "input_producer/Const"
  op: "Const"
  attr {
    key: "_output_shapes"
    value {
      list {
        shape {
          dim {
            size: 804
          }
        }
      }
    }
  }
  attr {
    key: "dtype"
    value {
      type: DT_STRING
    }
  }
  attr {
    key: "value"
    value {
      tensor {
        dtype: DT_STRING
        tensor_shape {
          dim {
            size: 804
          }
        }
        string_val: "NetworkReadyGameStateRepresentations/gameStates_1.tfrecords"
        string_val: "NetworkReadyGameStateRepresentations/gameStates_2.tfrecords"
        string_val: "NetworkReadyGameStateRepresentations/gameStates_3.tfrecords"
        string_val: "NetworkReadyGameStateRepresentations/gameStates_4.tfrecords"
        string_val: "NetworkReadyGameStateRepresentations/gameStates_5.tfrecords"
        string_val: "NetworkReadyGameStateRepresentations/gameStates_6.tfrecords"
        string_val: "NetworkReadyGameStateRepresentations/gameStates_7.tfrecords"
        string_val: "NetworkReadyGameStateRepresentations/gameStates_8.tfrecords"
        string_val: "NetworkReadyGameStateRepresentations/gameStates_9.tfrecords"
        string_val: "NetworkReadyGameStateRepresentations/gameStates_11.tfrecords"
        string_val: "NetworkReadyGameStateRepresentations/gameStates_12.tfrecords"
        string_val: "NetworkReadyGameStateRepresentations/gameStates_13.tfrecords"
        string_val: "NetworkReadyGameStateRepresentations/gameStates_14.tfrecords"
        string_val: "NetworkReadyGameStateRepresentations/gameStates_15.tfrecords"
        string_val: "NetworkReadyGameStateRepresentations/gameStates_16.tfrecords"
        string_val: "NetworkReadyGameStateRepresentations/gameStates_17.tfrecords"
        string_val: "NetworkReadyGameStateRepresentations/gameStates_18.tfrecords"
        string_val: "NetworkReadyGameStateRepresentations/gameStates_19.tfrecords"
        string_val: "NetworkReadyGameStateRepresentations/gameStates_21.tfrecords"
        string_val: "NetworkReadyGameStateRepresentations/gameStates_22.tfrecords"
        string_val: "NetworkReadyGameStateRepresentations/gameStates_23.tfrecords"
        string_val: "NetworkReadyGameStateRepresentations/gameStates_24.tfrecords"
        string_val: "NetworkReadyGameStateRepresentations/gameStates_25.tfrecords"
        string_val: "NetworkReadyGameStateRepresentations/gameStates_26.tfrecords"
        string_val: "NetworkReadyGameStateRepresentations/gameStates_27.tfrecords"
        string_val: "NetworkReadyGameStateRepresentations/gameStates_28.tfrecords"
        string_val: "NetworkReadyGameStateRepresentations/gameStates_29.tfrecords"
        string_val: "NetworkReadyGameStateRepresentations/gameStates_31.tfrecords"
        string_val: "NetworkReadyGameStateRepresentations/gameStates_32.tfrecords"
        string_val: "NetworkReadyGameStateRepresentations/gameStates_33.tfrecords"
        string_val: "NetworkReadyGameStateRepresentations/gameStates_34.tfrecords"
        string_val: "NetworkReadyGameStateRepresentations/gameStates_35.tfrecords"
        string_val: "NetworkReadyGameStateRepresentations/gameStates_36.tfrecords"
        string_val: "NetworkReadyGameStateRepresentations/gameStates_37.tfrecords"
        string_val: "NetworkReadyGameStateRepresentations/gameStates_38.tfrecords"
        string_val: "NetworkReadyGameStateRepresentations/gameStates_39.tfrecords"
        string_val: "NetworkReadyGameStateRepresentations/gameStates_41.tfrecords"
        string_val: "NetworkReadyGameStateRepresentations/gameStates_42.tfrecords"
        string_val: "NetworkReadyGameStateRepresentations/gameStates_43.tfrecords"
        string_val: "NetworkReadyGameStateRepresentations/gameStates_44.tfrecords"
        string_val: "NetworkReadyGameStateRepresentations/gameStates_45.tfrecords"
        string_val: "NetworkReadyGameStateRepresentations/gameStates_46.tfrecords"
        string_val: "NetworkReadyGameStateRepresentations/gameStates_47.tfrecords"
        string_val: "NetworkReadyGameStateRepresentations/gameStates_48.tfrecords"
        string_val: "NetworkReadyGameStateRepresentations/gameStates_49.tfrecords"
        string_val: "NetworkReadyGameStateRepresentations/gameStates_51.tfrecords"
        string_val: "NetworkReadyGameStateRepresentations/gameStates_52.tfrecords"
        string_val: "NetworkReadyGameStateRepresentations/gameStates_53.tfrecords"
        string_val: "NetworkReadyGameStateRepresentations/gameStates_54.tfrecords"
        string_val: "NetworkReadyGameStateRepresentations/gameStates_55.tfrecords"
        string_val: "NetworkReadyGameStateRepresentations/gameStates_56.tfrecords"
        string_val: "NetworkReadyGameStateRepresentations/gameStates_57.tfrecords"
        string_val: "NetworkReadyGameStateRepresentations/gameStates_58.tfrecords"
        string_val: "NetworkReadyGameStateRepresentations/gameStates_59.tfrecords"
        string_val: "NetworkReadyGameStateRepresentations/gameStates_61.tfrecords"
        string_val: "NetworkReadyGameStateRepresentations/gameStates_62.tfrecords"
        string_val: "NetworkReadyGameStateRepresentations/gameStates_63.tfrecords"
        string_val: "NetworkReadyGameStateRepresentations/gameStates_64.tfrecords"
        string_val: "NetworkReadyGameStateRepresentations/gameStates_65.tfrecords"
        string_val: "NetworkReadyGameStateRepresentations/gameStates_66.tfrecords"
        string_val: "NetworkReadyGameStateRepresentations/gameStates_67.tfrecords"
        string_val: "NetworkReadyGameStateRepresentations/gameStates_68.tfrecords"
        string_val: "NetworkReadyGameStateRepresentations/gameStates_69.tfrecords"
        string_val: "NetworkReadyGameStateRepresentations/gameStates_71.tfrecords"
        string_val: "NetworkReadyGameStateRepresentations/gameStates_72.tfrecords"
        string_val: "NetworkReadyGameStateRepresentations/gameStates_73.tfrecords"
        string_val: "NetworkReadyGameStateRepresentations/gameStates_74.tfrecords"
        string_val: "NetworkReadyGameStateRepresentations/gameStates_75.tfrecords"
        string_val: "NetworkReadyGameStateRepresentations/gameStates_76.tfrecords"
        string_val: "NetworkReadyGameStateRepresentations/gameStates_77.tfrecords"
        string_val: "NetworkReadyGameStateRepresentations/gameStates_78.tfrecords"
        string_val: "NetworkReadyGameStateRepresentations/gameStates_79.tfrecords"
        string_val: "NetworkReadyGameStateRepresentations/gameStates_81.tfrecords"
        string_val: "NetworkReadyGameStateRepresentations/gameStates_82.tfrecords"
        string_val: "NetworkReadyGameStateRepresentations/gameStates_83.tfrecords"
        string_val: "NetworkReadyGameStateRepresentations/gameStates_84.tfrecords"
        string_val: "NetworkReadyGameStateRepresentations/gameStates_85.tfrecords"
        string_val: "NetworkReadyGameStateRepresentations/gameStates_86.tfrecords"
        string_val: "NetworkReadyGameStateRepresentations/gameStates_87.tfrecords"
        string_val: "NetworkReadyGameStateRepresentations/gameStates_88.tfrecords"
        string_val: "NetworkReadyGameStateRepresentations/gameStates_89.tfrecords"
        string_val: "NetworkReadyGameStateRepresentations/gameStates_91.tfrecords"
        string_val: "NetworkReadyGameStateRepresentations/gameStates_92.tfrecords"
        string_val: "NetworkReadyGameStateRepresentations/gameStates_93.tfrecords"
        string_val: "NetworkReadyGameStateRepresentations/gameStates_94.tfrecords"
        string_val: "NetworkReadyGameStateRepresentations/gameStates_95.tfrecords"
        string_val: "NetworkReadyGameStateRepresentations/gameStates_96.tfrecords"
        string_val: "NetworkReadyGameStateRepresentations/gameStates_97.tfrecords"
        string_val: "NetworkReadyGameStateRepresentations/gameStates_98.tfrecords"
        string_val: "NetworkReadyGameStateRepresentations/gameStates_99.tfrecords"
        string_val: "NetworkReadyGameStateRepresentations/gameStates_101.tfrecords"
        string_val: "NetworkReadyGameStateRepresentations/gameStates_102.tfrecords"
        string_val: "NetworkReadyGameStateRepresentations/gameStates_103.tfrecords"
        string_val: "NetworkReadyGameStateRepresentations/gameStates_104.tfrecords"
        string_val: "NetworkReadyGameStateRepresentations/gameStates_105.tfrecords"
        string_val: "NetworkReadyGameStateRepresentations/gameStates_106.tfrecords"
        string_val: "NetworkReadyGameStateRepresentations/gameStates_107.tfrecords"
        string_val: "NetworkReadyGameStateRepresentations/gameStates_108.tfrecords"
        string_val: "NetworkReadyGameStateRepresentations/gameStates_109.tfrecords"
        string_val: "NetworkReadyGameStateRepresentations/gameStates_111.tfrecords"
        string_val: "NetworkReadyGameStateRepresentations/gameStates_112.tfrecords"
        string_val: "NetworkReadyGameStateRepresentations/gameStates_113.tfrecords"
        string_val: "NetworkReadyGameStateRepresentations/gameStates_114.tfrecords"
        string_val: "NetworkReadyGameStateRepresentations/gameStates_115.tfrecords"
        string_val: "NetworkReadyGameStateRepresentations/gameStates_116.tfrecords"
        string_val: "NetworkReadyGameStateRepresentations/gameStates_117.tfrecords"
        string_val: "NetworkReadyGameStateRepresentations/gameStates_118.tfrecords"
        string_val: "NetworkReadyGameStateRepresentations/gameStates_119.tfrecords"
        string_val: "NetworkReadyGameStateRepresentations/gameStates_121.tfrecords"
        string_val: "NetworkReadyGameStateRepresentations/gameStates_122.tfrecords"
        string_val: "NetworkReadyGameStateRepresentations/gameStates_123.tfrecords"
        string_val: "NetworkReadyGameStateRepresentations/gameStates_124.tfrecords"
        string_val: "NetworkReadyGameStateRepresentations/gameStates_125.tfrecords"
        string_val: "NetworkReadyGameStateRepresentations/gameStates_126.tfrecords"
        string_val: "NetworkReadyGameStateRepresentations/gameStates_127.tfrecords"
        string_val: "NetworkReadyGameStateRepresentations/gameStates_128.tfrecords"
        string_val: "NetworkReadyGameStateRepresentations/gameStates_129.tfrecords"
        string_val: "NetworkReadyGameStateRepresentations/gameStates_131.tfrecords"
        string_val: "NetworkReadyGameStateRepresentations/gameStates_132.tfrecords"
        string_val: "NetworkReadyGameStateRepresentations/gameStates_133.tfrecords"
        string_val: "NetworkReadyGameStateRepresentations/gameStates_134.tfrecords"
        string_val: "NetworkReadyGameStateRepresentations/gameStates_135.tfrecords"
        string_val: "NetworkReadyGameStateRepresentations/gameStates_136.tfrecords"
        string_val: "NetworkReadyGameStateRepresentations/gameStates_137.tfrecords"
        string_val: "NetworkReadyGameStateRepresentations/gameStates_138.tfrecords"
        string_val: "NetworkReadyGameStateRepresentations/gameStates_139.tfrecords"
        string_val: "NetworkReadyGameStateRepresentations/gameStates_141.tfrecords"
        string_val: "NetworkReadyGameStateRepresentations/gameStates_142.tfrecords"
        string_val: "NetworkReadyGameStateRepresentations/gameStates_143.tfrecords"
        string_val: "NetworkReadyGameStateRepresentations/gameStates_144.tfrecords"
        string_val: "NetworkReadyGameStateRepresentations/gameStates_145.tfrecords"
        string_val: "NetworkReadyGameStateRepresentations/gameStates_146.tfrecords"
        string_val: "NetworkReadyGameStateRepresentations/gameStates_147.tfrecords"
        string_val: "NetworkReadyGameStateRepresentations/gameStates_148.tfrecords"
        string_val: "NetworkReadyGameStateRepresentations/gameStates_149.tfrecords"
        string_val: "NetworkReadyGameStateRepresentations/gameStates_151.tfrecords"
        string_val: "NetworkReadyGameStateRepresentations/gameStates_152.tfrecords"
        string_val: "NetworkReadyGameStateRepresentations/gameStates_153.tfrecords"
        string_val: "NetworkReadyGameStateRepresentations/gameStates_154.tfrecords"
        string_val: "NetworkReadyGameStateRepresentations/gameStates_155.tfrecords"
        string_val: "NetworkReadyGameStateRepresentations/gameStates_156.tfrecords"
        string_val: "NetworkReadyGameStateRepresentations/gameStates_157.tfrecords"
        string_val: "NetworkReadyGameStateRepresentations/gameStates_158.tfrecords"
        string_val: "NetworkReadyGameStateRepresentations/gameStates_159.tfrecords"
        string_val: "NetworkReadyGameStateRepresentations/gameStates_161.tfrecords"
        string_val: "NetworkReadyGameStateRepresentations/gameStates_162.tfrecords"
        string_val: "NetworkReadyGameStateRepresentations/gameStates_163.tfrecords"
        string_val: "NetworkReadyGameStateRepresentations/gameStates_164.tfrecords"
        string_val: "NetworkReadyGameStateRepresentations/gameStates_165.tfrecords"
        string_val: "NetworkReadyGameStateRepresentations/gameStates_166.tfrecords"
        string_val: "NetworkReadyGameStateRepresentations/gameStates_167.tfrecords"
        string_val: "NetworkReadyGameStateRepresentations/gameStates_168.tfrecords"
        string_val: "NetworkReadyGameStateRepresentations/gameStates_169.tfrecords"
        string_val: "NetworkReadyGameStateRepresentations/gameStates_171.tfrecords"
        string_val: "NetworkReadyGameStateRepresentations/gameStates_172.tfrecords"
        string_val: "NetworkReadyGameStateRepresentations/gameStates_173.tfrecords"
        string_val: "NetworkReadyGameStateRepresentations/gameStates_174.tfrecords"
        string_val: "NetworkReadyGameStateRepresentations/gameStates_175.tfrecords"
        string_val: "NetworkReadyGameStateRepresentations/gameStates_176.tfrecords"
        string_val: "NetworkReadyGameStateRepresentations/gameStates_177.tfrecords"
        string_val: "NetworkReadyGameStateRepresentations/gameStates_178.tfrecords"
        string_val: "NetworkReadyGameStateRepresentations/gameStates_179.tfrecords"
        string_val: "NetworkReadyGameStateRepresentations/gameStates_181.tfrecords"
        string_val: "NetworkReadyGameStateRepresentations/gameStates_182.tfrecords"
        string_val: "NetworkReadyGameStateRepresentations/gameStates_183.tfrecords"
        string_val: "NetworkReadyGameStateRepresentations/gameStates_184.tfrecords"
        string_val: "NetworkReadyGameStateRepresentations/gameStates_185.tfrecords"
        string_val: "NetworkReadyGameStateRepresentations/gameStates_186.tfrecords"
        string_val: "NetworkReadyGameStateRepresentations/gameStates_187.tfrecords"
        string_val: "NetworkReadyGameStateRepresentations/gameStates_188.tfrecords"
        string_val: "NetworkReadyGameStateRepresentations/gameStates_189.tfrecords"
        string_val: "NetworkReadyGameStateRepresentations/gameStates_191.tfrecords"
        string_val: "NetworkReadyGameStateRepresentations/gameStates_192.tfrecords"
        string_val: "NetworkReadyGameStateRepresentations/gameStates_193.tfrecords"
        string_val: "NetworkReadyGameStateRepresentations/gameStates_194.tfrecords"
        string_val: "NetworkReadyGameStateRepresentations/gameStates_195.tfrecords"
        string_val: "NetworkReadyGameStateRepresentations/gameStates_196.tfrecords"
        string_val: "NetworkReadyGameStateRepresentations/gameStates_197.tfrecords"
        string_val: "NetworkReadyGameStateRepresentations/gameStates_198.tfrecords"
        string_val: "NetworkReadyGameStateRepresentations/gameStates_199.tfrecords"
        string_val: "NetworkReadyGameStateRepresentations/gameStates_201.tfrecords"
        string_val: "NetworkReadyGameStateRepresentations/gameStates_202.tfrecords"
        string_val: "NetworkReadyGameStateRepresentations/gameStates_203.tfrecords"
        string_val: "NetworkReadyGameStateRepresentations/gameStates_204.tfrecords"
        string_val: "NetworkReadyGameStateRepresentations/gameStates_205.tfrecords"
        string_val: "NetworkReadyGameStateRepresentations/gameStates_206.tfrecords"
        string_val: "NetworkReadyGameStateRepresentations/gameStates_207.tfrecords"
        string_val: "NetworkReadyGameStateRepresentations/gameStates_208.tfrecords"
        string_val: "NetworkReadyGameStateRepresentations/gameStates_209.tfrecords"
        string_val: "NetworkReadyGameStateRepresentations/gameStates_211.tfrecords"
        string_val: "NetworkReadyGameStateRepresentations/gameStates_212.tfrecords"
        string_val: "NetworkReadyGameStateRepresentations/gameStates_213.tfrecords"
        string_val: "NetworkReadyGameStateRepresentations/gameStates_214.tfrecords"
        string_val: "NetworkReadyGameStateRepresentations/gameStates_215.tfrecords"
        string_val: "NetworkReadyGameStateRepresentations/gameStates_216.tfrecords"
        string_val: "NetworkReadyGameStateRepresentations/gameStates_217.tfrecords"
        string_val: "NetworkReadyGameStateRepresentations/gameStates_218.tfrecords"
        string_val: "NetworkReadyGameStateRepresentations/gameStates_219.tfrecords"
        string_val: "NetworkReadyGameStateRepresentations/gameStates_221.tfrecords"
        string_val: "NetworkReadyGameStateRepresentations/gameStates_222.tfrecords"
        string_val: "NetworkReadyGameStateRepresentations/gameStates_223.tfrecords"
        string_val: "NetworkReadyGameStateRepresentations/gameStates_224.tfrecords"
        string_val: "NetworkReadyGameStateRepresentations/gameStates_225.tfrecords"
        string_val: "NetworkReadyGameStateRepresentations/gameStates_226.tfrecords"
        string_val: "NetworkReadyGameStateRepresentations/gameStates_227.tfrecords"
        string_val: "NetworkReadyGameStateRepresentations/gameStates_228.tfrecords"
        string_val: "NetworkReadyGameStateRepresentations/gameStates_229.tfrecords"
        string_val: "NetworkReadyGameStateRepresentations/gameStates_231.tfrecords"
        string_val: "NetworkReadyGameStateRepresentations/gameStates_232.tfrecords"
        string_val: "NetworkReadyGameStateRepresentations/gameStates_233.tfrecords"
        string_val: "NetworkReadyGameStateRepresentations/gameStates_234.tfrecords"
        string_val: "NetworkReadyGameStateRepresentations/gameStates_235.tfrecords"
        string_val: "NetworkReadyGameStateRepresentations/gameStates_236.tfrecords"
        string_val: "NetworkReadyGameStateRepresentations/gameStates_237.tfrecords"
        string_val: "NetworkReadyGameStateRepresentations/gameStates_238.tfrecords"
        string_val: "NetworkReadyGameStateRepresentations/gameStates_239.tfrecords"
        string_val: "NetworkReadyGameStateRepresentations/gameStates_241.tfrecords"
        string_val: "NetworkReadyGameStateRepresentations/gameStates_242.tfrecords"
        string_val: "NetworkReadyGameStateRepresentations/gameStates_243.tfrecords"
        string_val: "NetworkReadyGameStateRepresentations/gameStates_244.tfrecords"
        string_val: "NetworkReadyGameStateRepresentations/gameStates_245.tfrecords"
        string_val: "NetworkReadyGameStateRepresentations/gameStates_246.tfrecords"
        string_val: "NetworkReadyGameStateRepresentations/gameStates_247.tfrecords"
        string_val: "NetworkReadyGameStateRepresentations/gameStates_248.tfrecords"
        string_val: "NetworkReadyGameStateRepresentations/gameStates_249.tfrecords"
        string_val: "NetworkReadyGameStateRepresentations/gameStates_251.tfrecords"
        string_val: "NetworkReadyGameStateRepresentations/gameStates_252.tfrecords"
        string_val: "NetworkReadyGameStateRepresentations/gameStates_253.tfrecords"
        string_val: "NetworkReadyGameStateRepresentations/gameStates_254.tfrecords"
        string_val: "NetworkReadyGameStateRepresentations/gameStates_255.tfrecords"
        string_val: "NetworkReadyGameStateRepresentations/gameStates_256.tfrecords"
        string_val: "NetworkReadyGameStateRepresentations/gameStates_257.tfrecords"
        string_val: "NetworkReadyGameStateRepresentations/gameStates_258.tfrecords"
        string_val: "NetworkReadyGameStateRepresentations/gameStates_259.tfrecords"
        string_val: "NetworkReadyGameStateRepresentations/gameStates_261.tfrecords"
        string_val: "NetworkReadyGameStateRepresentations/gameStates_262.tfrecords"
        string_val: "NetworkReadyGameStateRepresentations/gameStates_263.tfrecords"
        string_val: "NetworkReadyGameStateRepresentations/gameStates_264.tfrecords"
        string_val: "NetworkReadyGameStateRepresentations/gameStates_265.tfrecords"
        string_val: "NetworkReadyGameStateRepresentations/gameStates_266.tfrecords"
        string_val: "NetworkReadyGameStateRepresentations/gameStates_267.tfrecords"
        string_val: "NetworkReadyGameStateRepresentations/gameStates_268.tfrecords"
        string_val: "NetworkReadyGameStateRepresentations/gameStates_269.tfrecords"
        string_val: "NetworkReadyGameStateRepresentations/gameStates_271.tfrecords"
        string_val: "NetworkReadyGameStateRepresentations/gameStates_272.tfrecords"
        string_val: "NetworkReadyGameStateRepresentations/gameStates_273.tfrecords"
        string_val: "NetworkReadyGameStateRepresentations/gameStates_274.tfrecords"
        string_val: "NetworkReadyGameStateRepresentations/gameStates_275.tfrecords"
        string_val: "NetworkReadyGameStateRepresentations/gameStates_276.tfrecords"
        string_val: "NetworkReadyGameStateRepresentations/gameStates_277.tfrecords"
        string_val: "NetworkReadyGameStateRepresentations/gameStates_278.tfrecords"
        string_val: "NetworkReadyGameStateRepresentations/gameStates_279.tfrecords"
        string_val: "NetworkReadyGameStateRepresentations/gameStates_281.tfrecords"
        string_val: "NetworkReadyGameStateRepresentations/gameStates_282.tfrecords"
        string_val: "NetworkReadyGameStateRepresentations/gameStates_283.tfrecords"
        string_val: "NetworkReadyGameStateRepresentations/gameStates_284.tfrecords"
        string_val: "NetworkReadyGameStateRepresentations/gameStates_285.tfrecords"
        string_val: "NetworkReadyGameStateRepresentations/gameStates_286.tfrecords"
        string_val: "NetworkReadyGameStateRepresentations/gameStates_287.tfrecords"
        string_val: "NetworkReadyGameStateRepresentations/gameStates_288.tfrecords"
        string_val: "NetworkReadyGameStateRepresentations/gameStates_289.tfrecords"
        string_val: "NetworkReadyGameStateRepresentations/gameStates_291.tfrecords"
        string_val: "NetworkReadyGameStateRepresentations/gameStates_292.tfrecords"
        string_val: "NetworkReadyGameStateRepresentations/gameStates_293.tfrecords"
        string_val: "NetworkReadyGameStateRepresentations/gameStates_294.tfrecords"
        string_val: "NetworkReadyGameStateRepresentations/gameStates_295.tfrecords"
        string_val: "NetworkReadyGameStateRepresentations/gameStates_296.tfrecords"
        string_val: "NetworkReadyGameStateRepresentations/gameStates_297.tfrecords"
        string_val: "NetworkReadyGameStateRepresentations/gameStates_298.tfrecords"
        string_val: "NetworkReadyGameStateRepresentations/gameStates_299.tfrecords"
        string_val: "NetworkReadyGameStateRepresentations/gameStates_301.tfrecords"
        string_val: "NetworkReadyGameStateRepresentations/gameStates_302.tfrecords"
        string_val: "NetworkReadyGameStateRepresentations/gameStates_303.tfrecords"
        string_val: "NetworkReadyGameStateRepresentations/gameStates_304.tfrecords"
        string_val: "NetworkReadyGameStateRepresentations/gameStates_305.tfrecords"
        string_val: "NetworkReadyGameStateRepresentations/gameStates_306.tfrecords"
        string_val: "NetworkReadyGameStateRepresentations/gameStates_307.tfrecords"
        string_val: "NetworkReadyGameStateRepresentations/gameStates_308.tfrecords"
        string_val: "NetworkReadyGameStateRepresentations/gameStates_309.tfrecords"
        string_val: "NetworkReadyGameStateRepresentations/gameStates_311.tfrecords"
        string_val: "NetworkReadyGameStateRepresentations/gameStates_312.tfrecords"
        string_val: "NetworkReadyGameStateRepresentations/gameStates_313.tfrecords"
        string_val: "NetworkReadyGameStateRepresentations/gameStates_314.tfrecords"
        string_val: "NetworkReadyGameStateRepresentations/gameStates_315.tfrecords"
        string_val: "NetworkReadyGameStateRepresentations/gameStates_316.tfrecords"
        string_val: "NetworkReadyGameStateRepresentations/gameStates_317.tfrecords"
        string_val: "NetworkReadyGameStateRepresentations/gameStates_318.tfrecords"
        string_val: "NetworkReadyGameStateRepresentations/gameStates_319.tfrecords"
        string_val: "NetworkReadyGameStateRepresentations/gameStates_321.tfrecords"
        string_val: "NetworkReadyGameStateRepresentations/gameStates_322.tfrecords"
        string_val: "NetworkReadyGameStateRepresentations/gameStates_323.tfrecords"
        string_val: "NetworkReadyGameStateRepresentations/gameStates_324.tfrecords"
        string_val: "NetworkReadyGameStateRepresentations/gameStates_325.tfrecords"
        string_val: "NetworkReadyGameStateRepresentations/gameStates_326.tfrecords"
        string_val: "NetworkReadyGameStateRepresentations/gameStates_327.tfrecords"
        string_val: "NetworkReadyGameStateRepresentations/gameStates_328.tfrecords"
        string_val: "NetworkReadyGameStateRepresentations/gameStates_329.tfrecords"
        string_val: "NetworkReadyGameStateRepresentations/gameStates_331.tfrecords"
        string_val: "NetworkReadyGameStateRepresentations/gameStates_332.tfrecords"
        string_val: "NetworkReadyGameStateRepresentations/gameStates_333.tfrecords"
        string_val: "NetworkReadyGameStateRepresentations/gameStates_334.tfrecords"
        string_val: "NetworkReadyGameStateRepresentations/gameStates_335.tfrecords"
        string_val: "NetworkReadyGameStateRepresentations/gameStates_336.tfrecords"
        string_val: "NetworkReadyGameStateRepresentations/gameStates_337.tfrecords"
        string_val: "NetworkReadyGameStateRepresentations/gameStates_338.tfrecords"
        string_val: "NetworkReadyGameStateRepresentations/gameStates_339.tfrecords"
        string_val: "NetworkReadyGameStateRepresentations/gameStates_341.tfrecords"
        string_val: "NetworkReadyGameStateRepresentations/gameStates_342.tfrecords"
        string_val: "NetworkReadyGameStateRepresentations/gameStates_343.tfrecords"
        string_val: "NetworkReadyGameStateRepresentations/gameStates_344.tfrecords"
        string_val: "NetworkReadyGameStateRepresentations/gameStates_345.tfrecords"
        string_val: "NetworkReadyGameStateRepresentations/gameStates_346.tfrecords"
        string_val: "NetworkReadyGameStateRepresentations/gameStates_347.tfrecords"
        string_val: "NetworkReadyGameStateRepresentations/gameStates_348.tfrecords"
        string_val: "NetworkReadyGameStateRepresentations/gameStates_349.tfrecords"
        string_val: "NetworkReadyGameStateRepresentations/gameStates_351.tfrecords"
        string_val: "NetworkReadyGameStateRepresentations/gameStates_352.tfrecords"
        string_val: "NetworkReadyGameStateRepresentations/gameStates_353.tfrecords"
        string_val: "NetworkReadyGameStateRepresentations/gameStates_354.tfrecords"
        string_val: "NetworkReadyGameStateRepresentations/gameStates_355.tfrecords"
        string_val: "NetworkReadyGameStateRepresentations/gameStates_356.tfrecords"
        string_val: "NetworkReadyGameStateRepresentations/gameStates_357.tfrecords"
        string_val: "NetworkReadyGameStateRepresentations/gameStates_358.tfrecords"
        string_val: "NetworkReadyGameStateRepresentations/gameStates_359.tfrecords"
        string_val: "NetworkReadyGameStateRepresentations/gameStates_361.tfrecords"
        string_val: "NetworkReadyGameStateRepresentations/gameStates_362.tfrecords"
        string_val: "NetworkReadyGameStateRepresentations/gameStates_363.tfrecords"
        string_val: "NetworkReadyGameStateRepresentations/gameStates_364.tfrecords"
        string_val: "NetworkReadyGameStateRepresentations/gameStates_365.tfrecords"
        string_val: "NetworkReadyGameStateRepresentations/gameStates_366.tfrecords"
        string_val: "NetworkReadyGameStateRepresentations/gameStates_367.tfrecords"
        string_val: "NetworkReadyGameStateRepresentations/gameStates_368.tfrecords"
        string_val: "NetworkReadyGameStateRepresentations/gameStates_369.tfrecords"
        string_val: "NetworkReadyGameStateRepresentations/gameStates_371.tfrecords"
        string_val: "NetworkReadyGameStateRepresentations/gameStates_372.tfrecords"
        string_val: "NetworkReadyGameStateRepresentations/gameStates_373.tfrecords"
        string_val: "NetworkReadyGameStateRepresentations/gameStates_374.tfrecords"
        string_val: "NetworkReadyGameStateRepresentations/gameStates_375.tfrecords"
        string_val: "NetworkReadyGameStateRepresentations/gameStates_376.tfrecords"
        string_val: "NetworkReadyGameStateRepresentations/gameStates_377.tfrecords"
        string_val: "NetworkReadyGameStateRepresentations/gameStates_378.tfrecords"
        string_val: "NetworkReadyGameStateRepresentations/gameStates_379.tfrecords"
        string_val: "NetworkReadyGameStateRepresentations/gameStates_381.tfrecords"
        string_val: "NetworkReadyGameStateRepresentations/gameStates_382.tfrecords"
        string_val: "NetworkReadyGameStateRepresentations/gameStates_383.tfrecords"
        string_val: "NetworkReadyGameStateRepresentations/gameStates_384.tfrecords"
        string_val: "NetworkReadyGameStateRepresentations/gameStates_385.tfrecords"
        string_val: "NetworkReadyGameStateRepresentations/gameStates_386.tfrecords"
        string_val: "NetworkReadyGameStateRepresentations/gameStates_387.tfrecords"
        string_val: "NetworkReadyGameStateRepresentations/gameStates_388.tfrecords"
        string_val: "NetworkReadyGameStateRepresentations/gameStates_389.tfrecords"
        string_val: "NetworkReadyGameStateRepresentations/gameStates_391.tfrecords"
        string_val: "NetworkReadyGameStateRepresentations/gameStates_392.tfrecords"
        string_val: "NetworkReadyGameStateRepresentations/gameStates_393.tfrecords"
        string_val: "NetworkReadyGameStateRepresentations/gameStates_394.tfrecords"
        string_val: "NetworkReadyGameStateRepresentations/gameStates_395.tfrecords"
        string_val: "NetworkReadyGameStateRepresentations/gameStates_396.tfrecords"
        string_val: "NetworkReadyGameStateRepresentations/gameStates_397.tfrecords"
        string_val: "NetworkReadyGameStateRepresentations/gameStates_398.tfrecords"
        string_val: "NetworkReadyGameStateRepresentations/gameStates_399.tfrecords"
        string_val: "NetworkReadyGameStateRepresentations/gameStates_401.tfrecords"
        string_val: "NetworkReadyGameStateRepresentations/gameStates_402.tfrecords"
        string_val: "NetworkReadyGameStateRepresentations/gameStates_403.tfrecords"
        string_val: "NetworkReadyGameStateRepresentations/gameStates_404.tfrecords"
        string_val: "NetworkReadyGameStateRepresentations/gameStates_405.tfrecords"
        string_val: "NetworkReadyGameStateRepresentations/gameStates_406.tfrecords"
        string_val: "NetworkReadyGameStateRepresentations/gameStates_407.tfrecords"
        string_val: "NetworkReadyGameStateRepresentations/gameStates_408.tfrecords"
        string_val: "NetworkReadyGameStateRepresentations/gameStates_409.tfrecords"
        string_val: "NetworkReadyGameStateRepresentations/gameStates_411.tfrecords"
        string_val: "NetworkReadyGameStateRepresentations/gameStates_412.tfrecords"
        string_val: "NetworkReadyGameStateRepresentations/gameStates_413.tfrecords"
        string_val: "NetworkReadyGameStateRepresentations/gameStates_414.tfrecords"
        string_val: "NetworkReadyGameStateRepresentations/gameStates_415.tfrecords"
        string_val: "NetworkReadyGameStateRepresentations/gameStates_416.tfrecords"
        string_val: "NetworkReadyGameStateRepresentations/gameStates_417.tfrecords"
        string_val: "NetworkReadyGameStateRepresentations/gameStates_418.tfrecords"
        string_val: "NetworkReadyGameStateRepresentations/gameStates_419.tfrecords"
        string_val: "NetworkReadyGameStateRepresentations/gameStates_421.tfrecords"
        string_val: "NetworkReadyGameStateRepresentations/gameStates_422.tfrecords"
        string_val: "NetworkReadyGameStateRepresentations/gameStates_423.tfrecords"
        string_val: "NetworkReadyGameStateRepresentations/gameStates_424.tfrecords"
        string_val: "NetworkReadyGameStateRepresentations/gameStates_425.tfrecords"
        string_val: "NetworkReadyGameStateRepresentations/gameStates_426.tfrecords"
        string_val: "NetworkReadyGameStateRepresentations/gameStates_427.tfrecords"
        string_val: "NetworkReadyGameStateRepresentations/gameStates_428.tfrecords"
        string_val: "NetworkReadyGameStateRepresentations/gameStates_429.tfrecords"
        string_val: "NetworkReadyGameStateRepresentations/gameStates_431.tfrecords"
        string_val: "NetworkReadyGameStateRepresentations/gameStates_432.tfrecords"
        string_val: "NetworkReadyGameStateRepresentations/gameStates_433.tfrecords"
        string_val: "NetworkReadyGameStateRepresentations/gameStates_434.tfrecords"
        string_val: "NetworkReadyGameStateRepresentations/gameStates_435.tfrecords"
        string_val: "NetworkReadyGameStateRepresentations/gameStates_436.tfrecords"
        string_val: "NetworkReadyGameStateRepresentations/gameStates_437.tfrecords"
        string_val: "NetworkReadyGameStateRepresentations/gameStates_438.tfrecords"
        string_val: "NetworkReadyGameStateRepresentations/gameStates_439.tfrecords"
        string_val: "NetworkReadyGameStateRepresentations/gameStates_441.tfrecords"
        string_val: "NetworkReadyGameStateRepresentations/gameStates_442.tfrecords"
        string_val: "NetworkReadyGameStateRepresentations/gameStates_443.tfrecords"
        string_val: "NetworkReadyGameStateRepresentations/gameStates_444.tfrecords"
        string_val: "NetworkReadyGameStateRepresentations/gameStates_445.tfrecords"
        string_val: "NetworkReadyGameStateRepresentations/gameStates_446.tfrecords"
        string_val: "NetworkReadyGameStateRepresentations/gameStates_447.tfrecords"
        string_val: "NetworkReadyGameStateRepresentations/gameStates_448.tfrecords"
        string_val: "NetworkReadyGameStateRepresentations/gameStates_449.tfrecords"
        string_val: "NetworkReadyGameStateRepresentations/gameStates_451.tfrecords"
        string_val: "NetworkReadyGameStateRepresentations/gameStates_452.tfrecords"
        string_val: "NetworkReadyGameStateRepresentations/gameStates_453.tfrecords"
        string_val: "NetworkReadyGameStateRepresentations/gameStates_454.tfrecords"
        string_val: "NetworkReadyGameStateRepresentations/gameStates_455.tfrecords"
        string_val: "NetworkReadyGameStateRepresentations/gameStates_456.tfrecords"
        string_val: "NetworkReadyGameStateRepresentations/gameStates_457.tfrecords"
        string_val: "NetworkReadyGameStateRepresentations/gameStates_458.tfrecords"
        string_val: "NetworkReadyGameStateRepresentations/gameStates_459.tfrecords"
        string_val: "NetworkReadyGameStateRepresentations/gameStates_461.tfrecords"
        string_val: "NetworkReadyGameStateRepresentations/gameStates_462.tfrecords"
        string_val: "NetworkReadyGameStateRepresentations/gameStates_463.tfrecords"
        string_val: "NetworkReadyGameStateRepresentations/gameStates_464.tfrecords"
        string_val: "NetworkReadyGameStateRepresentations/gameStates_465.tfrecords"
        string_val: "NetworkReadyGameStateRepresentations/gameStates_466.tfrecords"
        string_val: "NetworkReadyGameStateRepresentations/gameStates_467.tfrecords"
        string_val: "NetworkReadyGameStateRepresentations/gameStates_468.tfrecords"
        string_val: "NetworkReadyGameStateRepresentations/gameStates_469.tfrecords"
        string_val: "NetworkReadyGameStateRepresentations/gameStates_471.tfrecords"
        string_val: "NetworkReadyGameStateRepresentations/gameStates_472.tfrecords"
        string_val: "NetworkReadyGameStateRepresentations/gameStates_473.tfrecords"
        string_val: "NetworkReadyGameStateRepresentations/gameStates_474.tfrecords"
        string_val: "NetworkReadyGameStateRepresentations/gameStates_475.tfrecords"
        string_val: "NetworkReadyGameStateRepresentations/gameStates_476.tfrecords"
        string_val: "NetworkReadyGameStateRepresentations/gameStates_477.tfrecords"
        string_val: "NetworkReadyGameStateRepresentations/gameStates_478.tfrecords"
        string_val: "NetworkReadyGameStateRepresentations/gameStates_479.tfrecords"
        string_val: "NetworkReadyGameStateRepresentations/gameStates_481.tfrecords"
        string_val: "NetworkReadyGameStateRepresentations/gameStates_482.tfrecords"
        string_val: "NetworkReadyGameStateRepresentations/gameStates_483.tfrecords"
        string_val: "NetworkReadyGameStateRepresentations/gameStates_484.tfrecords"
        string_val: "NetworkReadyGameStateRepresentations/gameStates_485.tfrecords"
        string_val: "NetworkReadyGameStateRepresentations/gameStates_486.tfrecords"
        string_val: "NetworkReadyGameStateRepresentations/gameStates_487.tfrecords"
        string_val: "NetworkReadyGameStateRepresentations/gameStates_488.tfrecords"
        string_val: "NetworkReadyGameStateRepresentations/gameStates_489.tfrecords"
        string_val: "NetworkReadyGameStateRepresentations/gameStates_491.tfrecords"
        string_val: "NetworkReadyGameStateRepresentations/gameStates_492.tfrecords"
        string_val: "NetworkReadyGameStateRepresentations/gameStates_493.tfrecords"
        string_val: "NetworkReadyGameStateRepresentations/gameStates_494.tfrecords"
        string_val: "NetworkReadyGameStateRepresentations/gameStates_495.tfrecords"
        string_val: "NetworkReadyGameStateRepresentations/gameStates_496.tfrecords"
        string_val: "NetworkReadyGameStateRepresentations/gameStates_497.tfrecords"
        string_val: "NetworkReadyGameStateRepresentations/gameStates_498.tfrecords"
        string_val: "NetworkReadyGameStateRepresentations/gameStates_499.tfrecords"
        string_val: "NetworkReadyGameStateRepresentations/gameStates_501.tfrecords"
        string_val: "NetworkReadyGameStateRepresentations/gameStates_502.tfrecords"
        string_val: "NetworkReadyGameStateRepresentations/gameStates_503.tfrecords"
        string_val: "NetworkReadyGameStateRepresentations/gameStates_504.tfrecords"
        string_val: "NetworkReadyGameStateRepresentations/gameStates_505.tfrecords"
        string_val: "NetworkReadyGameStateRepresentations/gameStates_506.tfrecords"
        string_val: "NetworkReadyGameStateRepresentations/gameStates_507.tfrecords"
        string_val: "NetworkReadyGameStateRepresentations/gameStates_508.tfrecords"
        string_val: "NetworkReadyGameStateRepresentations/gameStates_509.tfrecords"
        string_val: "NetworkReadyGameStateRepresentations/gameStates_511.tfrecords"
        string_val: "NetworkReadyGameStateRepresentations/gameStates_512.tfrecords"
        string_val: "NetworkReadyGameStateRepresentations/gameStates_513.tfrecords"
        string_val: "NetworkReadyGameStateRepresentations/gameStates_514.tfrecords"
        string_val: "NetworkReadyGameStateRepresentations/gameStates_515.tfrecords"
        string_val: "NetworkReadyGameStateRepresentations/gameStates_516.tfrecords"
        string_val: "NetworkReadyGameStateRepresentations/gameStates_517.tfrecords"
        string_val: "NetworkReadyGameStateRepresentations/gameStates_518.tfrecords"
        string_val: "NetworkReadyGameStateRepresentations/gameStates_519.tfrecords"
        string_val: "NetworkReadyGameStateRepresentations/gameStates_521.tfrecords"
        string_val: "NetworkReadyGameStateRepresentations/gameStates_522.tfrecords"
        string_val: "NetworkReadyGameStateRepresentations/gameStates_523.tfrecords"
        string_val: "NetworkReadyGameStateRepresentations/gameStates_524.tfrecords"
        string_val: "NetworkReadyGameStateRepresentations/gameStates_525.tfrecords"
        string_val: "NetworkReadyGameStateRepresentations/gameStates_526.tfrecords"
        string_val: "NetworkReadyGameStateRepresentations/gameStates_527.tfrecords"
        string_val: "NetworkReadyGameStateRepresentations/gameStates_528.tfrecords"
        string_val: "NetworkReadyGameStateRepresentations/gameStates_529.tfrecords"
        string_val: "NetworkReadyGameStateRepresentations/gameStates_531.tfrecords"
        string_val: "NetworkReadyGameStateRepresentations/gameStates_532.tfrecords"
        string_val: "NetworkReadyGameStateRepresentations/gameStates_533.tfrecords"
        string_val: "NetworkReadyGameStateRepresentations/gameStates_534.tfrecords"
        string_val: "NetworkReadyGameStateRepresentations/gameStates_535.tfrecords"
        string_val: "NetworkReadyGameStateRepresentations/gameStates_536.tfrecords"
        string_val: "NetworkReadyGameStateRepresentations/gameStates_537.tfrecords"
        string_val: "NetworkReadyGameStateRepresentations/gameStates_538.tfrecords"
        string_val: "NetworkReadyGameStateRepresentations/gameStates_539.tfrecords"
        string_val: "NetworkReadyGameStateRepresentations/gameStates_541.tfrecords"
        string_val: "NetworkReadyGameStateRepresentations/gameStates_542.tfrecords"
        string_val: "NetworkReadyGameStateRepresentations/gameStates_543.tfrecords"
        string_val: "NetworkReadyGameStateRepresentations/gameStates_544.tfrecords"
        string_val: "NetworkReadyGameStateRepresentations/gameStates_545.tfrecords"
        string_val: "NetworkReadyGameStateRepresentations/gameStates_546.tfrecords"
        string_val: "NetworkReadyGameStateRepresentations/gameStates_547.tfrecords"
        string_val: "NetworkReadyGameStateRepresentations/gameStates_548.tfrecords"
        string_val: "NetworkReadyGameStateRepresentations/gameStates_549.tfrecords"
        string_val: "NetworkReadyGameStateRepresentations/gameStates_551.tfrecords"
        string_val: "NetworkReadyGameStateRepresentations/gameStates_552.tfrecords"
        string_val: "NetworkReadyGameStateRepresentations/gameStates_553.tfrecords"
        string_val: "NetworkReadyGameStateRepresentations/gameStates_554.tfrecords"
        string_val: "NetworkReadyGameStateRepresentations/gameStates_555.tfrecords"
        string_val: "NetworkReadyGameStateRepresentations/gameStates_556.tfrecords"
        string_val: "NetworkReadyGameStateRepresentations/gameStates_557.tfrecords"
        string_val: "NetworkReadyGameStateRepresentations/gameStates_558.tfrecords"
        string_val: "NetworkReadyGameStateRepresentations/gameStates_559.tfrecords"
        string_val: "NetworkReadyGameStateRepresentations/gameStates_561.tfrecords"
        string_val: "NetworkReadyGameStateRepresentations/gameStates_562.tfrecords"
        string_val: "NetworkReadyGameStateRepresentations/gameStates_563.tfrecords"
        string_val: "NetworkReadyGameStateRepresentations/gameStates_564.tfrecords"
        string_val: "NetworkReadyGameStateRepresentations/gameStates_565.tfrecords"
        string_val: "NetworkReadyGameStateRepresentations/gameStates_566.tfrecords"
        string_val: "NetworkReadyGameStateRepresentations/gameStates_567.tfrecords"
        string_val: "NetworkReadyGameStateRepresentations/gameStates_568.tfrecords"
        string_val: "NetworkReadyGameStateRepresentations/gameStates_569.tfrecords"
        string_val: "NetworkReadyGameStateRepresentations/gameStates_571.tfrecords"
        string_val: "NetworkReadyGameStateRepresentations/gameStates_572.tfrecords"
        string_val: "NetworkReadyGameStateRepresentations/gameStates_573.tfrecords"
        string_val: "NetworkReadyGameStateRepresentations/gameStates_574.tfrecords"
        string_val: "NetworkReadyGameStateRepresentations/gameStates_575.tfrecords"
        string_val: "NetworkReadyGameStateRepresentations/gameStates_576.tfrecords"
        string_val: "NetworkReadyGameStateRepresentations/gameStates_577.tfrecords"
        string_val: "NetworkReadyGameStateRepresentations/gameStates_578.tfrecords"
        string_val: "NetworkReadyGameStateRepresentations/gameStates_579.tfrecords"
        string_val: "NetworkReadyGameStateRepresentations/gameStates_581.tfrecords"
        string_val: "NetworkReadyGameStateRepresentations/gameStates_582.tfrecords"
        string_val: "NetworkReadyGameStateRepresentations/gameStates_583.tfrecords"
        string_val: "NetworkReadyGameStateRepresentations/gameStates_584.tfrecords"
        string_val: "NetworkReadyGameStateRepresentations/gameStates_585.tfrecords"
        string_val: "NetworkReadyGameStateRepresentations/gameStates_586.tfrecords"
        string_val: "NetworkReadyGameStateRepresentations/gameStates_587.tfrecords"
        string_val: "NetworkReadyGameStateRepresentations/gameStates_588.tfrecords"
        string_val: "NetworkReadyGameStateRepresentations/gameStates_589.tfrecords"
        string_val: "NetworkReadyGameStateRepresentations/gameStates_591.tfrecords"
        string_val: "NetworkReadyGameStateRepresentations/gameStates_592.tfrecords"
        string_val: "NetworkReadyGameStateRepresentations/gameStates_593.tfrecords"
        string_val: "NetworkReadyGameStateRepresentations/gameStates_594.tfrecords"
        string_val: "NetworkReadyGameStateRepresentations/gameStates_595.tfrecords"
        string_val: "NetworkReadyGameStateRepresentations/gameStates_596.tfrecords"
        string_val: "NetworkReadyGameStateRepresentations/gameStates_597.tfrecords"
        string_val: "NetworkReadyGameStateRepresentations/gameStates_598.tfrecords"
        string_val: "NetworkReadyGameStateRepresentations/gameStates_599.tfrecords"
        string_val: "NetworkReadyGameStateRepresentations/gameStates_601.tfrecords"
        string_val: "NetworkReadyGameStateRepresentations/gameStates_602.tfrecords"
        string_val: "NetworkReadyGameStateRepresentations/gameStates_603.tfrecords"
        string_val: "NetworkReadyGameStateRepresentations/gameStates_604.tfrecords"
        string_val: "NetworkReadyGameStateRepresentations/gameStates_605.tfrecords"
        string_val: "NetworkReadyGameStateRepresentations/gameStates_606.tfrecords"
        string_val: "NetworkReadyGameStateRepresentations/gameStates_607.tfrecords"
        string_val: "NetworkReadyGameStateRepresentations/gameStates_608.tfrecords"
        string_val: "NetworkReadyGameStateRepresentations/gameStates_609.tfrecords"
        string_val: "NetworkReadyGameStateRepresentations/gameStates_611.tfrecords"
        string_val: "NetworkReadyGameStateRepresentations/gameStates_612.tfrecords"
        string_val: "NetworkReadyGameStateRepresentations/gameStates_613.tfrecords"
        string_val: "NetworkReadyGameStateRepresentations/gameStates_614.tfrecords"
        string_val: "NetworkReadyGameStateRepresentations/gameStates_615.tfrecords"
        string_val: "NetworkReadyGameStateRepresentations/gameStates_616.tfrecords"
        string_val: "NetworkReadyGameStateRepresentations/gameStates_617.tfrecords"
        string_val: "NetworkReadyGameStateRepresentations/gameStates_618.tfrecords"
        string_val: "NetworkReadyGameStateRepresentations/gameStates_619.tfrecords"
        string_val: "NetworkReadyGameStateRepresentations/gameStates_621.tfrecords"
        string_val: "NetworkReadyGameStateRepresentations/gameStates_622.tfrecords"
        string_val: "NetworkReadyGameStateRepresentations/gameStates_623.tfrecords"
        string_val: "NetworkReadyGameStateRepresentations/gameStates_624.tfrecords"
        string_val: "NetworkReadyGameStateRepresentations/gameStates_625.tfrecords"
        string_val: "NetworkReadyGameStateRepresentations/gameStates_626.tfrecords"
        string_val: "NetworkReadyGameStateRepresentations/gameStates_627.tfrecords"
        string_val: "NetworkReadyGameStateRepresentations/gameStates_628.tfrecords"
        string_val: "NetworkReadyGameStateRepresentations/gameStates_629.tfrecords"
        string_val: "NetworkReadyGameStateRepresentations/gameStates_631.tfrecords"
        string_val: "NetworkReadyGameStateRepresentations/gameStates_632.tfrecords"
        string_val: "NetworkReadyGameStateRepresentations/gameStates_633.tfrecords"
        string_val: "NetworkReadyGameStateRepresentations/gameStates_634.tfrecords"
        string_val: "NetworkReadyGameStateRepresentations/gameStates_635.tfrecords"
        string_val: "NetworkReadyGameStateRepresentations/gameStates_636.tfrecords"
        string_val: "NetworkReadyGameStateRepresentations/gameStates_637.tfrecords"
        string_val: "NetworkReadyGameStateRepresentations/gameStates_638.tfrecords"
        string_val: "NetworkReadyGameStateRepresentations/gameStates_639.tfrecords"
        string_val: "NetworkReadyGameStateRepresentations/gameStates_641.tfrecords"
        string_val: "NetworkReadyGameStateRepresentations/gameStates_642.tfrecords"
        string_val: "NetworkReadyGameStateRepresentations/gameStates_643.tfrecords"
        string_val: "NetworkReadyGameStateRepresentations/gameStates_644.tfrecords"
        string_val: "NetworkReadyGameStateRepresentations/gameStates_645.tfrecords"
        string_val: "NetworkReadyGameStateRepresentations/gameStates_646.tfrecords"
        string_val: "NetworkReadyGameStateRepresentations/gameStates_647.tfrecords"
        string_val: "NetworkReadyGameStateRepresentations/gameStates_648.tfrecords"
        string_val: "NetworkReadyGameStateRepresentations/gameStates_649.tfrecords"
        string_val: "NetworkReadyGameStateRepresentations/gameStates_651.tfrecords"
        string_val: "NetworkReadyGameStateRepresentations/gameStates_652.tfrecords"
        string_val: "NetworkReadyGameStateRepresentations/gameStates_653.tfrecords"
        string_val: "NetworkReadyGameStateRepresentations/gameStates_654.tfrecords"
        string_val: "NetworkReadyGameStateRepresentations/gameStates_655.tfrecords"
        string_val: "NetworkReadyGameStateRepresentations/gameStates_656.tfrecords"
        string_val: "NetworkReadyGameStateRepresentations/gameStates_657.tfrecords"
        string_val: "NetworkReadyGameStateRepresentations/gameStates_658.tfrecords"
        string_val: "NetworkReadyGameStateRepresentations/gameStates_659.tfrecords"
        string_val: "NetworkReadyGameStateRepresentations/gameStates_661.tfrecords"
        string_val: "NetworkReadyGameStateRepresentations/gameStates_662.tfrecords"
        string_val: "NetworkReadyGameStateRepresentations/gameStates_663.tfrecords"
        string_val: "NetworkReadyGameStateRepresentations/gameStates_664.tfrecords"
        string_val: "NetworkReadyGameStateRepresentations/gameStates_665.tfrecords"
        string_val: "NetworkReadyGameStateRepresentations/gameStates_666.tfrecords"
        string_val: "NetworkReadyGameStateRepresentations/gameStates_667.tfrecords"
        string_val: "NetworkReadyGameStateRepresentations/gameStates_668.tfrecords"
        string_val: "NetworkReadyGameStateRepresentations/gameStates_669.tfrecords"
        string_val: "NetworkReadyGameStateRepresentations/gameStates_671.tfrecords"
        string_val: "NetworkReadyGameStateRepresentations/gameStates_672.tfrecords"
        string_val: "NetworkReadyGameStateRepresentations/gameStates_673.tfrecords"
        string_val: "NetworkReadyGameStateRepresentations/gameStates_674.tfrecords"
        string_val: "NetworkReadyGameStateRepresentations/gameStates_675.tfrecords"
        string_val: "NetworkReadyGameStateRepresentations/gameStates_676.tfrecords"
        string_val: "NetworkReadyGameStateRepresentations/gameStates_677.tfrecords"
        string_val: "NetworkReadyGameStateRepresentations/gameStates_678.tfrecords"
        string_val: "NetworkReadyGameStateRepresentations/gameStates_679.tfrecords"
        string_val: "NetworkReadyGameStateRepresentations/gameStates_681.tfrecords"
        string_val: "NetworkReadyGameStateRepresentations/gameStates_682.tfrecords"
        string_val: "NetworkReadyGameStateRepresentations/gameStates_683.tfrecords"
        string_val: "NetworkReadyGameStateRepresentations/gameStates_684.tfrecords"
        string_val: "NetworkReadyGameStateRepresentations/gameStates_685.tfrecords"
        string_val: "NetworkReadyGameStateRepresentations/gameStates_686.tfrecords"
        string_val: "NetworkReadyGameStateRepresentations/gameStates_687.tfrecords"
        string_val: "NetworkReadyGameStateRepresentations/gameStates_688.tfrecords"
        string_val: "NetworkReadyGameStateRepresentations/gameStates_689.tfrecords"
        string_val: "NetworkReadyGameStateRepresentations/gameStates_691.tfrecords"
        string_val: "NetworkReadyGameStateRepresentations/gameStates_692.tfrecords"
        string_val: "NetworkReadyGameStateRepresentations/gameStates_693.tfrecords"
        string_val: "NetworkReadyGameStateRepresentations/gameStates_694.tfrecords"
        string_val: "NetworkReadyGameStateRepresentations/gameStates_695.tfrecords"
        string_val: "NetworkReadyGameStateRepresentations/gameStates_696.tfrecords"
        string_val: "NetworkReadyGameStateRepresentations/gameStates_697.tfrecords"
        string_val: "NetworkReadyGameStateRepresentations/gameStates_698.tfrecords"
        string_val: "NetworkReadyGameStateRepresentations/gameStates_699.tfrecords"
        string_val: "NetworkReadyGameStateRepresentations/gameStates_701.tfrecords"
        string_val: "NetworkReadyGameStateRepresentations/gameStates_702.tfrecords"
        string_val: "NetworkReadyGameStateRepresentations/gameStates_703.tfrecords"
        string_val: "NetworkReadyGameStateRepresentations/gameStates_704.tfrecords"
        string_val: "NetworkReadyGameStateRepresentations/gameStates_705.tfrecords"
        string_val: "NetworkReadyGameStateRepresentations/gameStates_706.tfrecords"
        string_val: "NetworkReadyGameStateRepresentations/gameStates_707.tfrecords"
        string_val: "NetworkReadyGameStateRepresentations/gameStates_708.tfrecords"
        string_val: "NetworkReadyGameStateRepresentations/gameStates_709.tfrecords"
        string_val: "NetworkReadyGameStateRepresentations/gameStates_711.tfrecords"
        string_val: "NetworkReadyGameStateRepresentations/gameStates_712.tfrecords"
        string_val: "NetworkReadyGameStateRepresentations/gameStates_713.tfrecords"
        string_val: "NetworkReadyGameStateRepresentations/gameStates_714.tfrecords"
        string_val: "NetworkReadyGameStateRepresentations/gameStates_715.tfrecords"
        string_val: "NetworkReadyGameStateRepresentations/gameStates_716.tfrecords"
        string_val: "NetworkReadyGameStateRepresentations/gameStates_717.tfrecords"
        string_val: "NetworkReadyGameStateRepresentations/gameStates_718.tfrecords"
        string_val: "NetworkReadyGameStateRepresentations/gameStates_719.tfrecords"
        string_val: "NetworkReadyGameStateRepresentations/gameStates_721.tfrecords"
        string_val: "NetworkReadyGameStateRepresentations/gameStates_722.tfrecords"
        string_val: "NetworkReadyGameStateRepresentations/gameStates_723.tfrecords"
        string_val: "NetworkReadyGameStateRepresentations/gameStates_724.tfrecords"
        string_val: "NetworkReadyGameStateRepresentations/gameStates_725.tfrecords"
        string_val: "NetworkReadyGameStateRepresentations/gameStates_726.tfrecords"
        string_val: "NetworkReadyGameStateRepresentations/gameStates_727.tfrecords"
        string_val: "NetworkReadyGameStateRepresentations/gameStates_728.tfrecords"
        string_val: "NetworkReadyGameStateRepresentations/gameStates_729.tfrecords"
        string_val: "NetworkReadyGameStateRepresentations/gameStates_731.tfrecords"
        string_val: "NetworkReadyGameStateRepresentations/gameStates_732.tfrecords"
        string_val: "NetworkReadyGameStateRepresentations/gameStates_733.tfrecords"
        string_val: "NetworkReadyGameStateRepresentations/gameStates_734.tfrecords"
        string_val: "NetworkReadyGameStateRepresentations/gameStates_735.tfrecords"
        string_val: "NetworkReadyGameStateRepresentations/gameStates_736.tfrecords"
        string_val: "NetworkReadyGameStateRepresentations/gameStates_737.tfrecords"
        string_val: "NetworkReadyGameStateRepresentations/gameStates_738.tfrecords"
        string_val: "NetworkReadyGameStateRepresentations/gameStates_739.tfrecords"
        string_val: "NetworkReadyGameStateRepresentations/gameStates_741.tfrecords"
        string_val: "NetworkReadyGameStateRepresentations/gameStates_742.tfrecords"
        string_val: "NetworkReadyGameStateRepresentations/gameStates_743.tfrecords"
        string_val: "NetworkReadyGameStateRepresentations/gameStates_744.tfrecords"
        string_val: "NetworkReadyGameStateRepresentations/gameStates_745.tfrecords"
        string_val: "NetworkReadyGameStateRepresentations/gameStates_746.tfrecords"
        string_val: "NetworkReadyGameStateRepresentations/gameStates_747.tfrecords"
        string_val: "NetworkReadyGameStateRepresentations/gameStates_748.tfrecords"
        string_val: "NetworkReadyGameStateRepresentations/gameStates_749.tfrecords"
        string_val: "NetworkReadyGameStateRepresentations/gameStates_751.tfrecords"
        string_val: "NetworkReadyGameStateRepresentations/gameStates_752.tfrecords"
        string_val: "NetworkReadyGameStateRepresentations/gameStates_753.tfrecords"
        string_val: "NetworkReadyGameStateRepresentations/gameStates_754.tfrecords"
        string_val: "NetworkReadyGameStateRepresentations/gameStates_755.tfrecords"
        string_val: "NetworkReadyGameStateRepresentations/gameStates_756.tfrecords"
        string_val: "NetworkReadyGameStateRepresentations/gameStates_757.tfrecords"
        string_val: "NetworkReadyGameStateRepresentations/gameStates_758.tfrecords"
        string_val: "NetworkReadyGameStateRepresentations/gameStates_759.tfrecords"
        string_val: "NetworkReadyGameStateRepresentations/gameStates_761.tfrecords"
        string_val: "NetworkReadyGameStateRepresentations/gameStates_762.tfrecords"
        string_val: "NetworkReadyGameStateRepresentations/gameStates_763.tfrecords"
        string_val: "NetworkReadyGameStateRepresentations/gameStates_764.tfrecords"
        string_val: "NetworkReadyGameStateRepresentations/gameStates_765.tfrecords"
        string_val: "NetworkReadyGameStateRepresentations/gameStates_766.tfrecords"
        string_val: "NetworkReadyGameStateRepresentations/gameStates_767.tfrecords"
        string_val: "NetworkReadyGameStateRepresentations/gameStates_768.tfrecords"
        string_val: "NetworkReadyGameStateRepresentations/gameStates_769.tfrecords"
        string_val: "NetworkReadyGameStateRepresentations/gameStates_771.tfrecords"
        string_val: "NetworkReadyGameStateRepresentations/gameStates_772.tfrecords"
        string_val: "NetworkReadyGameStateRepresentations/gameStates_773.tfrecords"
        string_val: "NetworkReadyGameStateRepresentations/gameStates_774.tfrecords"
        string_val: "NetworkReadyGameStateRepresentations/gameStates_775.tfrecords"
        string_val: "NetworkReadyGameStateRepresentations/gameStates_776.tfrecords"
        string_val: "NetworkReadyGameStateRepresentations/gameStates_777.tfrecords"
        string_val: "NetworkReadyGameStateRepresentations/gameStates_778.tfrecords"
        string_val: "NetworkReadyGameStateRepresentations/gameStates_779.tfrecords"
        string_val: "NetworkReadyGameStateRepresentations/gameStates_781.tfrecords"
        string_val: "NetworkReadyGameStateRepresentations/gameStates_782.tfrecords"
        string_val: "NetworkReadyGameStateRepresentations/gameStates_783.tfrecords"
        string_val: "NetworkReadyGameStateRepresentations/gameStates_784.tfrecords"
        string_val: "NetworkReadyGameStateRepresentations/gameStates_785.tfrecords"
        string_val: "NetworkReadyGameStateRepresentations/gameStates_786.tfrecords"
        string_val: "NetworkReadyGameStateRepresentations/gameStates_787.tfrecords"
        string_val: "NetworkReadyGameStateRepresentations/gameStates_788.tfrecords"
        string_val: "NetworkReadyGameStateRepresentations/gameStates_789.tfrecords"
        string_val: "NetworkReadyGameStateRepresentations/gameStates_791.tfrecords"
        string_val: "NetworkReadyGameStateRepresentations/gameStates_792.tfrecords"
        string_val: "NetworkReadyGameStateRepresentations/gameStates_793.tfrecords"
        string_val: "NetworkReadyGameStateRepresentations/gameStates_794.tfrecords"
        string_val: "NetworkReadyGameStateRepresentations/gameStates_795.tfrecords"
        string_val: "NetworkReadyGameStateRepresentations/gameStates_796.tfrecords"
        string_val: "NetworkReadyGameStateRepresentations/gameStates_797.tfrecords"
        string_val: "NetworkReadyGameStateRepresentations/gameStates_798.tfrecords"
        string_val: "NetworkReadyGameStateRepresentations/gameStates_799.tfrecords"
        string_val: "NetworkReadyGameStateRepresentations/gameStates_801.tfrecords"
        string_val: "NetworkReadyGameStateRepresentations/gameStates_802.tfrecords"
        string_val: "NetworkReadyGameStateRepresentations/gameStates_803.tfrecords"
        string_val: "NetworkReadyGameStateRepresentations/gameStates_804.tfrecords"
        string_val: "NetworkReadyGameStateRepresentations/gameStates_805.tfrecords"
        string_val: "NetworkReadyGameStateRepresentations/gameStates_806.tfrecords"
        string_val: "NetworkReadyGameStateRepresentations/gameStates_807.tfrecords"
        string_val: "NetworkReadyGameStateRepresentations/gameStates_808.tfrecords"
        string_val: "NetworkReadyGameStateRepresentations/gameStates_809.tfrecords"
        string_val: "NetworkReadyGameStateRepresentations/gameStates_811.tfrecords"
        string_val: "NetworkReadyGameStateRepresentations/gameStates_812.tfrecords"
        string_val: "NetworkReadyGameStateRepresentations/gameStates_813.tfrecords"
        string_val: "NetworkReadyGameStateRepresentations/gameStates_814.tfrecords"
        string_val: "NetworkReadyGameStateRepresentations/gameStates_815.tfrecords"
        string_val: "NetworkReadyGameStateRepresentations/gameStates_816.tfrecords"
        string_val: "NetworkReadyGameStateRepresentations/gameStates_817.tfrecords"
        string_val: "NetworkReadyGameStateRepresentations/gameStates_818.tfrecords"
        string_val: "NetworkReadyGameStateRepresentations/gameStates_819.tfrecords"
        string_val: "NetworkReadyGameStateRepresentations/gameStates_821.tfrecords"
        string_val: "NetworkReadyGameStateRepresentations/gameStates_822.tfrecords"
        string_val: "NetworkReadyGameStateRepresentations/gameStates_823.tfrecords"
        string_val: "NetworkReadyGameStateRepresentations/gameStates_824.tfrecords"
        string_val: "NetworkReadyGameStateRepresentations/gameStates_825.tfrecords"
        string_val: "NetworkReadyGameStateRepresentations/gameStates_826.tfrecords"
        string_val: "NetworkReadyGameStateRepresentations/gameStates_827.tfrecords"
        string_val: "NetworkReadyGameStateRepresentations/gameStates_828.tfrecords"
        string_val: "NetworkReadyGameStateRepresentations/gameStates_829.tfrecords"
        string_val: "NetworkReadyGameStateRepresentations/gameStates_831.tfrecords"
        string_val: "NetworkReadyGameStateRepresentations/gameStates_832.tfrecords"
        string_val: "NetworkReadyGameStateRepresentations/gameStates_833.tfrecords"
        string_val: "NetworkReadyGameStateRepresentations/gameStates_834.tfrecords"
        string_val: "NetworkReadyGameStateRepresentations/gameStates_835.tfrecords"
        string_val: "NetworkReadyGameStateRepresentations/gameStates_836.tfrecords"
        string_val: "NetworkReadyGameStateRepresentations/gameStates_837.tfrecords"
        string_val: "NetworkReadyGameStateRepresentations/gameStates_838.tfrecords"
        string_val: "NetworkReadyGameStateRepresentations/gameStates_839.tfrecords"
        string_val: "NetworkReadyGameStateRepresentations/gameStates_841.tfrecords"
        string_val: "NetworkReadyGameStateRepresentations/gameStates_842.tfrecords"
        string_val: "NetworkReadyGameStateRepresentations/gameStates_843.tfrecords"
        string_val: "NetworkReadyGameStateRepresentations/gameStates_844.tfrecords"
        string_val: "NetworkReadyGameStateRepresentations/gameStates_845.tfrecords"
        string_val: "NetworkReadyGameStateRepresentations/gameStates_846.tfrecords"
        string_val: "NetworkReadyGameStateRepresentations/gameStates_847.tfrecords"
        string_val: "NetworkReadyGameStateRepresentations/gameStates_848.tfrecords"
        string_val: "NetworkReadyGameStateRepresentations/gameStates_849.tfrecords"
        string_val: "NetworkReadyGameStateRepresentations/gameStates_851.tfrecords"
        string_val: "NetworkReadyGameStateRepresentations/gameStates_852.tfrecords"
        string_val: "NetworkReadyGameStateRepresentations/gameStates_853.tfrecords"
        string_val: "NetworkReadyGameStateRepresentations/gameStates_854.tfrecords"
        string_val: "NetworkReadyGameStateRepresentations/gameStates_855.tfrecords"
        string_val: "NetworkReadyGameStateRepresentations/gameStates_856.tfrecords"
        string_val: "NetworkReadyGameStateRepresentations/gameStates_857.tfrecords"
        string_val: "NetworkReadyGameStateRepresentations/gameStates_858.tfrecords"
        string_val: "NetworkReadyGameStateRepresentations/gameStates_859.tfrecords"
        string_val: "NetworkReadyGameStateRepresentations/gameStates_861.tfrecords"
        string_val: "NetworkReadyGameStateRepresentations/gameStates_862.tfrecords"
        string_val: "NetworkReadyGameStateRepresentations/gameStates_863.tfrecords"
        string_val: "NetworkReadyGameStateRepresentations/gameStates_864.tfrecords"
        string_val: "NetworkReadyGameStateRepresentations/gameStates_865.tfrecords"
        string_val: "NetworkReadyGameStateRepresentations/gameStates_866.tfrecords"
        string_val: "NetworkReadyGameStateRepresentations/gameStates_867.tfrecords"
        string_val: "NetworkReadyGameStateRepresentations/gameStates_868.tfrecords"
        string_val: "NetworkReadyGameStateRepresentations/gameStates_869.tfrecords"
        string_val: "NetworkReadyGameStateRepresentations/gameStates_871.tfrecords"
        string_val: "NetworkReadyGameStateRepresentations/gameStates_872.tfrecords"
        string_val: "NetworkReadyGameStateRepresentations/gameStates_873.tfrecords"
        string_val: "NetworkReadyGameStateRepresentations/gameStates_874.tfrecords"
        string_val: "NetworkReadyGameStateRepresentations/gameStates_875.tfrecords"
        string_val: "NetworkReadyGameStateRepresentations/gameStates_876.tfrecords"
        string_val: "NetworkReadyGameStateRepresentations/gameStates_877.tfrecords"
        string_val: "NetworkReadyGameStateRepresentations/gameStates_878.tfrecords"
        string_val: "NetworkReadyGameStateRepresentations/gameStates_879.tfrecords"
        string_val: "NetworkReadyGameStateRepresentations/gameStates_881.tfrecords"
        string_val: "NetworkReadyGameStateRepresentations/gameStates_882.tfrecords"
        string_val: "NetworkReadyGameStateRepresentations/gameStates_883.tfrecords"
        string_val: "NetworkReadyGameStateRepresentations/gameStates_884.tfrecords"
        string_val: "NetworkReadyGameStateRepresentations/gameStates_885.tfrecords"
        string_val: "NetworkReadyGameStateRepresentations/gameStates_886.tfrecords"
        string_val: "NetworkReadyGameStateRepresentations/gameStates_887.tfrecords"
        string_val: "NetworkReadyGameStateRepresentations/gameStates_888.tfrecords"
        string_val: "NetworkReadyGameStateRepresentations/gameStates_889.tfrecords"
        string_val: "NetworkReadyGameStateRepresentations/gameStates_891.tfrecords"
        string_val: "NetworkReadyGameStateRepresentations/gameStates_892.tfrecords"
        string_val: "NetworkReadyGameStateRepresentations/gameStates_893.tfrecords"
      }
    }
  }
}
node {
  name: "input_producer/Size"
  op: "Const"
  attr {
    key: "_output_shapes"
    value {
      list {
        shape {
        }
      }
    }
  }
  attr {
    key: "dtype"
    value {
      type: DT_INT32
    }
  }
  attr {
    key: "value"
    value {
      tensor {
        dtype: DT_INT32
        tensor_shape {
        }
        int_val: 804
      }
    }
  }
}
node {
  name: "input_producer/Greater/y"
  op: "Const"
  attr {
    key: "_output_shapes"
    value {
      list {
        shape {
        }
      }
    }
  }
  attr {
    key: "dtype"
    value {
      type: DT_INT32
    }
  }
  attr {
    key: "value"
    value {
      tensor {
        dtype: DT_INT32
        tensor_shape {
        }
        int_val: 0
      }
    }
  }
}
node {
  name: "input_producer/Greater"
  op: "Greater"
  input: "input_producer/Size"
  input: "input_producer/Greater/y"
  attr {
    key: "T"
    value {
      type: DT_INT32
    }
  }
  attr {
    key: "_output_shapes"
    value {
      list {
        shape {
        }
      }
    }
  }
}
node {
  name: "input_producer/Assert/Const"
  op: "Const"
  attr {
    key: "_output_shapes"
    value {
      list {
        shape {
        }
      }
    }
  }
  attr {
    key: "dtype"
    value {
      type: DT_STRING
    }
  }
  attr {
    key: "value"
    value {
      tensor {
        dtype: DT_STRING
        tensor_shape {
        }
        string_val: "string_input_producer requires a non-null input tensor"
      }
    }
  }
}
node {
  name: "input_producer/Assert/Assert/data_0"
  op: "Const"
  attr {
    key: "_output_shapes"
    value {
      list {
        shape {
        }
      }
    }
  }
  attr {
    key: "dtype"
    value {
      type: DT_STRING
    }
  }
  attr {
    key: "value"
    value {
      tensor {
        dtype: DT_STRING
        tensor_shape {
        }
        string_val: "string_input_producer requires a non-null input tensor"
      }
    }
  }
}
node {
  name: "input_producer/Assert/Assert"
  op: "Assert"
  input: "input_producer/Greater"
  input: "input_producer/Assert/Assert/data_0"
  attr {
    key: "T"
    value {
      list {
        type: DT_STRING
      }
    }
  }
  attr {
    key: "summarize"
    value {
      i: 3
    }
  }
}
node {
  name: "input_producer/Identity"
  op: "Identity"
  input: "input_producer/Const"
  input: "^input_producer/Assert/Assert"
  attr {
    key: "T"
    value {
      type: DT_STRING
    }
  }
  attr {
    key: "_output_shapes"
    value {
      list {
        shape {
          dim {
            size: 804
          }
        }
      }
    }
  }
}
node {
  name: "input_producer/RandomShuffle"
  op: "RandomShuffle"
  input: "input_producer/Identity"
  attr {
    key: "T"
    value {
      type: DT_STRING
    }
  }
  attr {
    key: "_output_shapes"
    value {
      list {
        shape {
          dim {
            size: 804
          }
        }
      }
    }
  }
  attr {
    key: "seed"
    value {
      i: 0
    }
  }
  attr {
    key: "seed2"
    value {
      i: 0
    }
  }
}
node {
  name: "input_producer"
  op: "FIFOQueue"
  attr {
    key: "_output_shapes"
    value {
      list {
        shape {
          dim {
            size: 2
          }
        }
      }
    }
  }
  attr {
    key: "capacity"
    value {
      i: 32
    }
  }
  attr {
    key: "component_types"
    value {
      list {
        type: DT_STRING
      }
    }
  }
  attr {
    key: "container"
    value {
      s: ""
    }
  }
  attr {
    key: "shapes"
    value {
      list {
        shape {
        }
      }
    }
  }
  attr {
    key: "shared_name"
    value {
      s: ""
    }
  }
}
node {
  name: "input_producer/input_producer_EnqueueMany"
  op: "QueueEnqueueMany"
  input: "input_producer"
  input: "input_producer/RandomShuffle"
  attr {
    key: "Tcomponents"
    value {
      list {
        type: DT_STRING
      }
    }
  }
  attr {
    key: "_class"
    value {
      list {
        s: "loc:@input_producer"
      }
    }
  }
  attr {
    key: "timeout_ms"
    value {
      i: -1
    }
  }
}
node {
  name: "input_producer/input_producer_Close"
  op: "QueueClose"
  input: "input_producer"
  attr {
    key: "_class"
    value {
      list {
        s: "loc:@input_producer"
      }
    }
  }
  attr {
    key: "cancel_pending_enqueues"
    value {
      b: false
    }
  }
}
node {
  name: "input_producer/input_producer_Close_1"
  op: "QueueClose"
  input: "input_producer"
  attr {
    key: "_class"
    value {
      list {
        s: "loc:@input_producer"
      }
    }
  }
  attr {
    key: "cancel_pending_enqueues"
    value {
      b: true
    }
  }
}
node {
  name: "input_producer/input_producer_Size"
  op: "QueueSize"
  input: "input_producer"
  attr {
    key: "_class"
    value {
      list {
        s: "loc:@input_producer"
      }
    }
  }
  attr {
    key: "_output_shapes"
    value {
      list {
        shape {
        }
      }
    }
  }
}
node {
  name: "input_producer/Cast"
  op: "Cast"
  input: "input_producer/input_producer_Size"
  attr {
    key: "DstT"
    value {
      type: DT_FLOAT
    }
  }
  attr {
    key: "SrcT"
    value {
      type: DT_INT32
    }
  }
  attr {
    key: "_output_shapes"
    value {
      list {
        shape {
        }
      }
    }
  }
}
node {
  name: "input_producer/mul/y"
  op: "Const"
  attr {
    key: "_output_shapes"
    value {
      list {
        shape {
        }
      }
    }
  }
  attr {
    key: "dtype"
    value {
      type: DT_FLOAT
    }
  }
  attr {
    key: "value"
    value {
      tensor {
        dtype: DT_FLOAT
        tensor_shape {
        }
        float_val: 0.03125
      }
    }
  }
}
node {
  name: "input_producer/mul"
  op: "Mul"
  input: "input_producer/Cast"
  input: "input_producer/mul/y"
  attr {
    key: "T"
    value {
      type: DT_FLOAT
    }
  }
  attr {
    key: "_output_shapes"
    value {
      list {
        shape {
        }
      }
    }
  }
}
node {
  name: "input_producer/queue/input_producer/fraction_of_32_full/tags"
  op: "Const"
  attr {
    key: "_output_shapes"
    value {
      list {
        shape {
        }
      }
    }
  }
  attr {
    key: "dtype"
    value {
      type: DT_STRING
    }
  }
  attr {
    key: "value"
    value {
      tensor {
        dtype: DT_STRING
        tensor_shape {
        }
        string_val: "input_producer/queue/input_producer/fraction_of_32_full"
      }
    }
  }
}
node {
  name: "input_producer/queue/input_producer/fraction_of_32_full"
  op: "ScalarSummary"
  input: "input_producer/queue/input_producer/fraction_of_32_full/tags"
  input: "input_producer/mul"
  attr {
    key: "T"
    value {
      type: DT_FLOAT
    }
  }
  attr {
    key: "_output_shapes"
    value {
      list {
        shape {
        }
      }
    }
  }
}
node {
  name: "ExampleReader"
  op: "TFRecordReader"
  attr {
    key: "_output_shapes"
    value {
      list {
        shape {
          dim {
            size: 2
          }
        }
      }
    }
  }
  attr {
    key: "compression_type"
    value {
      s: ""
    }
  }
  attr {
    key: "container"
    value {
      s: ""
    }
  }
  attr {
    key: "shared_name"
    value {
      s: ""
    }
  }
}
node {
  name: "ReaderRead"
  op: "ReaderRead"
  input: "ExampleReader"
  input: "input_producer"
  attr {
    key: "_class"
    value {
      list {
        s: "loc:@ExampleReader"
        s: "loc:@input_producer"
      }
    }
  }
  attr {
    key: "_output_shapes"
    value {
      list {
        shape {
        }
        shape {
        }
      }
    }
  }
}
node {
  name: "ParseSingleExample/ExpandDims/dim"
  op: "Const"
  attr {
    key: "_output_shapes"
    value {
      list {
        shape {
        }
      }
    }
  }
  attr {
    key: "dtype"
    value {
      type: DT_INT32
    }
  }
  attr {
    key: "value"
    value {
      tensor {
        dtype: DT_INT32
        tensor_shape {
        }
        int_val: 0
      }
    }
  }
}
node {
  name: "ParseSingleExample/ExpandDims"
  op: "ExpandDims"
  input: "ReaderRead:1"
  input: "ParseSingleExample/ExpandDims/dim"
  attr {
    key: "T"
    value {
      type: DT_STRING
    }
  }
  attr {
    key: "Tdim"
    value {
      type: DT_INT32
    }
  }
  attr {
    key: "_output_shapes"
    value {
      list {
        shape {
          dim {
            size: 1
          }
        }
      }
    }
  }
}
node {
  name: "ParseSingleExample/ParseExample/Const"
  op: "Const"
  attr {
    key: "_output_shapes"
    value {
      list {
        shape {
          dim {
          }
        }
      }
    }
  }
  attr {
    key: "dtype"
    value {
      type: DT_STRING
    }
  }
  attr {
    key: "value"
    value {
      tensor {
        dtype: DT_STRING
        tensor_shape {
          dim {
          }
        }
      }
    }
  }
}
node {
  name: "ParseSingleExample/ParseExample/Const_1"
  op: "Const"
  attr {
    key: "_output_shapes"
    value {
      list {
        shape {
          dim {
          }
        }
      }
    }
  }
  attr {
    key: "dtype"
    value {
      type: DT_STRING
    }
  }
  attr {
    key: "value"
    value {
      tensor {
        dtype: DT_STRING
        tensor_shape {
          dim {
          }
        }
      }
    }
  }
}
node {
  name: "ParseSingleExample/ParseExample/Const_2"
  op: "Const"
  attr {
    key: "_output_shapes"
    value {
      list {
        shape {
          dim {
          }
        }
      }
    }
  }
  attr {
    key: "dtype"
    value {
      type: DT_FLOAT
    }
  }
  attr {
    key: "value"
    value {
      tensor {
        dtype: DT_FLOAT
        tensor_shape {
          dim {
          }
        }
      }
    }
  }
}
node {
  name: "ParseSingleExample/ParseExample/ParseExample/names"
  op: "Const"
  attr {
    key: "_output_shapes"
    value {
      list {
        shape {
          dim {
          }
        }
      }
    }
  }
  attr {
    key: "dtype"
    value {
      type: DT_STRING
    }
  }
  attr {
    key: "value"
    value {
      tensor {
        dtype: DT_STRING
        tensor_shape {
          dim {
          }
        }
      }
    }
  }
}
node {
  name: "ParseSingleExample/ParseExample/ParseExample/dense_keys_0"
  op: "Const"
  attr {
    key: "_output_shapes"
    value {
      list {
        shape {
        }
      }
    }
  }
  attr {
    key: "dtype"
    value {
      type: DT_STRING
    }
  }
  attr {
    key: "value"
    value {
      tensor {
        dtype: DT_STRING
        tensor_shape {
        }
        string_val: "boardData"
      }
    }
  }
}
node {
  name: "ParseSingleExample/ParseExample/ParseExample/dense_keys_1"
  op: "Const"
  attr {
    key: "_output_shapes"
    value {
      list {
        shape {
        }
      }
    }
  }
  attr {
    key: "dtype"
    value {
      type: DT_STRING
    }
  }
  attr {
    key: "value"
    value {
      tensor {
        dtype: DT_STRING
        tensor_shape {
        }
        string_val: "pieceCounts"
      }
    }
  }
}
node {
  name: "ParseSingleExample/ParseExample/ParseExample/dense_keys_2"
  op: "Const"
  attr {
    key: "_output_shapes"
    value {
      list {
        shape {
        }
      }
    }
  }
  attr {
    key: "dtype"
    value {
      type: DT_STRING
    }
  }
  attr {
    key: "value"
    value {
      tensor {
        dtype: DT_STRING
        tensor_shape {
        }
        string_val: "score:"
      }
    }
  }
}
node {
  name: "ParseSingleExample/ParseExample/ParseExample"
  op: "ParseExample"
  input: "ParseSingleExample/ExpandDims"
  input: "ParseSingleExample/ParseExample/ParseExample/names"
  input: "ParseSingleExample/ParseExample/ParseExample/dense_keys_0"
  input: "ParseSingleExample/ParseExample/ParseExample/dense_keys_1"
  input: "ParseSingleExample/ParseExample/ParseExample/dense_keys_2"
  input: "ParseSingleExample/ParseExample/Const"
  input: "ParseSingleExample/ParseExample/Const_1"
  input: "ParseSingleExample/ParseExample/Const_2"
  attr {
    key: "Ndense"
    value {
      i: 3
    }
  }
  attr {
    key: "Nsparse"
    value {
      i: 0
    }
  }
  attr {
    key: "Tdense"
    value {
      list {
        type: DT_STRING
        type: DT_STRING
        type: DT_FLOAT
      }
    }
  }
  attr {
    key: "_output_shapes"
    value {
      list {
        shape {
          dim {
            size: 1
          }
        }
        shape {
          dim {
            size: 1
          }
        }
        shape {
          dim {
            size: 1
          }
        }
      }
    }
  }
  attr {
    key: "dense_shapes"
    value {
      list {
        shape {
        }
        shape {
        }
        shape {
        }
      }
    }
  }
  attr {
    key: "sparse_types"
    value {
      list {
      }
    }
  }
}
node {
  name: "ParseSingleExample/Squeeze_boardData"
  op: "Squeeze"
  input: "ParseSingleExample/ParseExample/ParseExample"
  attr {
    key: "T"
    value {
      type: DT_STRING
    }
  }
  attr {
    key: "_output_shapes"
    value {
      list {
        shape {
        }
      }
    }
  }
  attr {
    key: "squeeze_dims"
    value {
      list {
        i: 0
      }
    }
  }
}
node {
  name: "ParseSingleExample/Squeeze_pieceCounts"
  op: "Squeeze"
  input: "ParseSingleExample/ParseExample/ParseExample:1"
  attr {
    key: "T"
    value {
      type: DT_STRING
    }
  }
  attr {
    key: "_output_shapes"
    value {
      list {
        shape {
        }
      }
    }
  }
  attr {
    key: "squeeze_dims"
    value {
      list {
        i: 0
      }
    }
  }
}
node {
  name: "ParseSingleExample/Squeeze_score_"
  op: "Squeeze"
  input: "ParseSingleExample/ParseExample/ParseExample:2"
  attr {
    key: "T"
    value {
      type: DT_FLOAT
    }
  }
  attr {
    key: "_output_shapes"
    value {
      list {
        shape {
        }
      }
    }
  }
  attr {
    key: "squeeze_dims"
    value {
      list {
        i: 0
      }
    }
  }
}
node {
  name: "Reshape/shape"
  op: "Const"
  attr {
    key: "_output_shapes"
    value {
      list {
        shape {
          dim {
            size: 1
          }
        }
      }
    }
  }
  attr {
    key: "dtype"
    value {
      type: DT_INT32
    }
  }
  attr {
    key: "value"
    value {
      tensor {
        dtype: DT_INT32
        tensor_shape {
          dim {
            size: 1
          }
        }
        int_val: 1
      }
    }
  }
}
node {
  name: "Reshape"
  op: "Reshape"
  input: "ParseSingleExample/Squeeze_score_"
  input: "Reshape/shape"
  attr {
    key: "T"
    value {
      type: DT_FLOAT
    }
  }
  attr {
    key: "Tshape"
    value {
      type: DT_INT32
    }
  }
  attr {
    key: "_output_shapes"
    value {
      list {
        shape {
          dim {
            size: 1
          }
        }
      }
    }
  }
}
node {
  name: "DecodeRaw"
  op: "DecodeRaw"
  input: "ParseSingleExample/Squeeze_pieceCounts"
  attr {
    key: "_output_shapes"
    value {
      list {
        shape {
          dim {
            size: -1
          }
        }
      }
    }
  }
  attr {
    key: "little_endian"
    value {
      b: true
    }
  }
  attr {
    key: "out_type"
    value {
      type: DT_UINT8
    }
  }
}
node {
  name: "Cast"
  op: "Cast"
  input: "DecodeRaw"
  attr {
    key: "DstT"
    value {
      type: DT_FLOAT
    }
  }
  attr {
    key: "SrcT"
    value {
      type: DT_UINT8
    }
  }
  attr {
    key: "_output_shapes"
    value {
      list {
        shape {
          dim {
            size: -1
          }
        }
      }
    }
  }
}
node {
  name: "Reshape_1/shape"
  op: "Const"
  attr {
    key: "_output_shapes"
    value {
      list {
        shape {
          dim {
            size: 1
          }
        }
      }
    }
  }
  attr {
    key: "dtype"
    value {
      type: DT_INT32
    }
  }
  attr {
    key: "value"
    value {
      tensor {
        dtype: DT_INT32
        tensor_shape {
          dim {
            size: 1
          }
        }
        int_val: 6
      }
    }
  }
}
node {
  name: "Reshape_1"
  op: "Reshape"
  input: "Cast"
  input: "Reshape_1/shape"
  attr {
    key: "T"
    value {
      type: DT_FLOAT
    }
  }
  attr {
    key: "Tshape"
    value {
      type: DT_INT32
    }
  }
  attr {
    key: "_output_shapes"
    value {
      list {
        shape {
          dim {
            size: 6
          }
        }
      }
    }
  }
}
node {
  name: "DecodeRaw_1"
  op: "DecodeRaw"
  input: "ParseSingleExample/Squeeze_boardData"
  attr {
    key: "_output_shapes"
    value {
      list {
        shape {
          dim {
            size: -1
          }
        }
      }
    }
  }
  attr {
    key: "little_endian"
    value {
      b: true
    }
  }
  attr {
    key: "out_type"
    value {
      type: DT_INT8
    }
  }
}
node {
  name: "Cast_1"
  op: "Cast"
  input: "DecodeRaw_1"
  attr {
    key: "DstT"
    value {
      type: DT_FLOAT
    }
  }
  attr {
    key: "SrcT"
    value {
      type: DT_INT8
    }
  }
  attr {
    key: "_output_shapes"
    value {
      list {
        shape {
          dim {
            size: -1
          }
        }
      }
    }
  }
}
node {
  name: "Reshape_2/shape"
  op: "Const"
  attr {
    key: "_output_shapes"
    value {
      list {
        shape {
          dim {
            size: 3
          }
        }
      }
    }
  }
  attr {
    key: "dtype"
    value {
      type: DT_INT32
    }
  }
  attr {
    key: "value"
    value {
      tensor {
        dtype: DT_INT32
        tensor_shape {
          dim {
            size: 3
          }
        }
        tensor_content: "\005\000\000\000\005\000\000\000\010\000\000\000"
      }
    }
  }
}
node {
  name: "Reshape_2"
  op: "Reshape"
  input: "Cast_1"
  input: "Reshape_2/shape"
  attr {
    key: "T"
    value {
      type: DT_FLOAT
    }
  }
  attr {
    key: "Tshape"
    value {
      type: DT_INT32
    }
  }
  attr {
    key: "_output_shapes"
    value {
      list {
        shape {
          dim {
            size: 5
          }
          dim {
            size: 5
          }
          dim {
            size: 8
          }
        }
      }
    }
  }
}
node {
  name: "shuffle_batch/random_shuffle_queue"
  op: "RandomShuffleQueue"
  attr {
    key: "_output_shapes"
    value {
      list {
        shape {
          dim {
            size: 2
          }
        }
      }
    }
  }
  attr {
    key: "capacity"
    value {
      i: 23000
    }
  }
  attr {
    key: "component_types"
    value {
      list {
        type: DT_FLOAT
        type: DT_FLOAT
        type: DT_FLOAT
      }
    }
  }
  attr {
    key: "container"
    value {
      s: ""
    }
  }
  attr {
    key: "min_after_dequeue"
    value {
      i: 20000
    }
  }
  attr {
    key: "seed"
    value {
      i: 0
    }
  }
  attr {
    key: "seed2"
    value {
      i: 0
    }
  }
  attr {
    key: "shapes"
    value {
      list {
        shape {
          dim {
            size: 5
          }
          dim {
            size: 5
          }
          dim {
            size: 8
          }
        }
        shape {
          dim {
            size: 6
          }
        }
        shape {
          dim {
            size: 1
          }
        }
      }
    }
  }
  attr {
    key: "shared_name"
    value {
      s: ""
    }
  }
}
node {
  name: "shuffle_batch/random_shuffle_queue_enqueue"
  op: "QueueEnqueue"
  input: "shuffle_batch/random_shuffle_queue"
  input: "Reshape_2"
  input: "Reshape_1"
  input: "Reshape"
  attr {
    key: "Tcomponents"
    value {
      list {
        type: DT_FLOAT
        type: DT_FLOAT
        type: DT_FLOAT
      }
    }
  }
  attr {
    key: "_class"
    value {
      list {
        s: "loc:@shuffle_batch/random_shuffle_queue"
      }
    }
  }
  attr {
    key: "timeout_ms"
    value {
      i: -1
    }
  }
}
node {
  name: "shuffle_batch/random_shuffle_queue_Close"
  op: "QueueClose"
  input: "shuffle_batch/random_shuffle_queue"
  attr {
    key: "_class"
    value {
      list {
        s: "loc:@shuffle_batch/random_shuffle_queue"
      }
    }
  }
  attr {
    key: "cancel_pending_enqueues"
    value {
      b: false
    }
  }
}
node {
  name: "shuffle_batch/random_shuffle_queue_Close_1"
  op: "QueueClose"
  input: "shuffle_batch/random_shuffle_queue"
  attr {
    key: "_class"
    value {
      list {
        s: "loc:@shuffle_batch/random_shuffle_queue"
      }
    }
  }
  attr {
    key: "cancel_pending_enqueues"
    value {
      b: true
    }
  }
}
node {
  name: "shuffle_batch/random_shuffle_queue_Size"
  op: "QueueSize"
  input: "shuffle_batch/random_shuffle_queue"
  attr {
    key: "_class"
    value {
      list {
        s: "loc:@shuffle_batch/random_shuffle_queue"
      }
    }
  }
  attr {
    key: "_output_shapes"
    value {
      list {
        shape {
        }
      }
    }
  }
}
node {
  name: "shuffle_batch/sub/y"
  op: "Const"
  attr {
    key: "_output_shapes"
    value {
      list {
        shape {
        }
      }
    }
  }
  attr {
    key: "dtype"
    value {
      type: DT_INT32
    }
  }
  attr {
    key: "value"
    value {
      tensor {
        dtype: DT_INT32
        tensor_shape {
        }
        int_val: 20000
      }
    }
  }
}
node {
  name: "shuffle_batch/sub"
  op: "Sub"
  input: "shuffle_batch/random_shuffle_queue_Size"
  input: "shuffle_batch/sub/y"
  attr {
    key: "T"
    value {
      type: DT_INT32
    }
  }
  attr {
    key: "_output_shapes"
    value {
      list {
        shape {
        }
      }
    }
  }
}
node {
  name: "shuffle_batch/Maximum/x"
  op: "Const"
  attr {
    key: "_output_shapes"
    value {
      list {
        shape {
        }
      }
    }
  }
  attr {
    key: "dtype"
    value {
      type: DT_INT32
    }
  }
  attr {
    key: "value"
    value {
      tensor {
        dtype: DT_INT32
        tensor_shape {
        }
        int_val: 0
      }
    }
  }
}
node {
  name: "shuffle_batch/Maximum"
  op: "Maximum"
  input: "shuffle_batch/Maximum/x"
  input: "shuffle_batch/sub"
  attr {
    key: "T"
    value {
      type: DT_INT32
    }
  }
  attr {
    key: "_output_shapes"
    value {
      list {
        shape {
        }
      }
    }
  }
}
node {
  name: "shuffle_batch/Cast"
  op: "Cast"
  input: "shuffle_batch/Maximum"
  attr {
    key: "DstT"
    value {
      type: DT_FLOAT
    }
  }
  attr {
    key: "SrcT"
    value {
      type: DT_INT32
    }
  }
  attr {
    key: "_output_shapes"
    value {
      list {
        shape {
        }
      }
    }
  }
}
node {
  name: "shuffle_batch/mul/y"
  op: "Const"
  attr {
    key: "_output_shapes"
    value {
      list {
        shape {
        }
      }
    }
  }
  attr {
    key: "dtype"
    value {
      type: DT_FLOAT
    }
  }
  attr {
    key: "value"
    value {
      tensor {
        dtype: DT_FLOAT
        tensor_shape {
        }
        float_val: 0.00033333332976326346
      }
    }
  }
}
node {
  name: "shuffle_batch/mul"
  op: "Mul"
  input: "shuffle_batch/Cast"
  input: "shuffle_batch/mul/y"
  attr {
    key: "T"
    value {
      type: DT_FLOAT
    }
  }
  attr {
    key: "_output_shapes"
    value {
      list {
        shape {
        }
      }
    }
  }
}
node {
  name: "shuffle_batch/queue/shuffle_batch/fraction_over_20000_of_3000_full/tags"
  op: "Const"
  attr {
    key: "_output_shapes"
    value {
      list {
        shape {
        }
      }
    }
  }
  attr {
    key: "dtype"
    value {
      type: DT_STRING
    }
  }
  attr {
    key: "value"
    value {
      tensor {
        dtype: DT_STRING
        tensor_shape {
        }
        string_val: "shuffle_batch/queue/shuffle_batch/fraction_over_20000_of_3000_full"
      }
    }
  }
}
node {
  name: "shuffle_batch/queue/shuffle_batch/fraction_over_20000_of_3000_full"
  op: "ScalarSummary"
  input: "shuffle_batch/queue/shuffle_batch/fraction_over_20000_of_3000_full/tags"
  input: "shuffle_batch/mul"
  attr {
    key: "T"
    value {
      type: DT_FLOAT
    }
  }
  attr {
    key: "_output_shapes"
    value {
      list {
        shape {
        }
      }
    }
  }
}
node {
  name: "shuffle_batch/n"
  op: "Const"
  attr {
    key: "_output_shapes"
    value {
      list {
        shape {
        }
      }
    }
  }
  attr {
    key: "dtype"
    value {
      type: DT_INT32
    }
  }
  attr {
    key: "value"
    value {
      tensor {
        dtype: DT_INT32
        tensor_shape {
        }
        int_val: 1000
      }
    }
  }
}
node {
  name: "shuffle_batch"
  op: "QueueDequeueMany"
  input: "shuffle_batch/random_shuffle_queue"
  input: "shuffle_batch/n"
  attr {
    key: "_class"
    value {
      list {
        s: "loc:@shuffle_batch/random_shuffle_queue"
      }
    }
  }
  attr {
    key: "_output_shapes"
    value {
      list {
        shape {
          dim {
            size: 1000
          }
          dim {
            size: 5
          }
          dim {
            size: 5
          }
          dim {
            size: 8
          }
        }
        shape {
          dim {
            size: 1000
          }
          dim {
            size: 6
          }
        }
        shape {
          dim {
            size: 1000
          }
          dim {
            size: 1
          }
        }
      }
    }
  }
  attr {
    key: "component_types"
    value {
      list {
        type: DT_FLOAT
        type: DT_FLOAT
        type: DT_FLOAT
      }
    }
  }
  attr {
    key: "timeout_ms"
    value {
      i: -1
    }
  }
}
node {
  name: "Reshape_3/shape"
  op: "Const"
  attr {
    key: "_output_shapes"
    value {
      list {
        shape {
          dim {
            size: 1
          }
        }
      }
    }
  }
  attr {
    key: "dtype"
    value {
      type: DT_INT32
    }
  }
  attr {
    key: "value"
    value {
      tensor {
        dtype: DT_INT32
        tensor_shape {
          dim {
            size: 1
          }
        }
        int_val: 1000
      }
    }
  }
}
node {
  name: "Reshape_3"
  op: "Reshape"
  input: "shuffle_batch:2"
  input: "Reshape_3/shape"
  attr {
    key: "T"
    value {
      type: DT_FLOAT
    }
  }
  attr {
    key: "Tshape"
    value {
      type: DT_INT32
    }
  }
  attr {
    key: "_output_shapes"
    value {
      list {
        shape {
          dim {
            size: 1000
          }
        }
      }
    }
  }
}
node {
  name: "stackConv/weights"
  op: "Variable"
  attr {
    key: "_output_shapes"
    value {
      list {
        shape {
          dim {
            size: 1
          }
          dim {
            size: 1
          }
          dim {
            size: 8
          }
          dim {
            size: 50
          }
        }
      }
    }
  }
  attr {
    key: "container"
    value {
      s: ""
    }
  }
  attr {
    key: "dtype"
    value {
      type: DT_FLOAT
    }
  }
  attr {
    key: "shape"
    value {
      shape {
        dim {
          size: 1
        }
        dim {
          size: 1
        }
        dim {
          size: 8
        }
        dim {
          size: 50
        }
      }
    }
  }
  attr {
    key: "shared_name"
    value {
      s: ""
    }
  }
}
node {
  name: "stackConv/weights/Initializer/truncated_normal/shape"
  op: "Const"
  attr {
    key: "_class"
    value {
      list {
        s: "loc:@stackConv/weights"
      }
    }
  }
  attr {
    key: "_output_shapes"
    value {
      list {
        shape {
          dim {
            size: 4
          }
        }
      }
    }
  }
  attr {
    key: "dtype"
    value {
      type: DT_INT32
    }
  }
  attr {
    key: "value"
    value {
      tensor {
        dtype: DT_INT32
        tensor_shape {
          dim {
            size: 4
          }
        }
        tensor_content: "\001\000\000\000\001\000\000\000\010\000\000\0002\000\000\000"
      }
    }
  }
}
node {
  name: "stackConv/weights/Initializer/truncated_normal/mean"
  op: "Const"
  attr {
    key: "_class"
    value {
      list {
        s: "loc:@stackConv/weights"
      }
    }
  }
  attr {
    key: "_output_shapes"
    value {
      list {
        shape {
        }
      }
    }
  }
  attr {
    key: "dtype"
    value {
      type: DT_FLOAT
    }
  }
  attr {
    key: "value"
    value {
      tensor {
        dtype: DT_FLOAT
        tensor_shape {
        }
        float_val: 0.0
      }
    }
  }
}
node {
  name: "stackConv/weights/Initializer/truncated_normal/stddev"
  op: "Const"
  attr {
    key: "_class"
    value {
      list {
        s: "loc:@stackConv/weights"
      }
    }
  }
  attr {
    key: "_output_shapes"
    value {
      list {
        shape {
        }
      }
    }
  }
  attr {
    key: "dtype"
    value {
      type: DT_FLOAT
    }
  }
  attr {
    key: "value"
    value {
      tensor {
        dtype: DT_FLOAT
        tensor_shape {
        }
        float_val: 0.05000000074505806
      }
    }
  }
}
node {
  name: "stackConv/weights/Initializer/truncated_normal/TruncatedNormal"
  op: "TruncatedNormal"
  input: "stackConv/weights/Initializer/truncated_normal/shape"
  attr {
    key: "T"
    value {
      type: DT_INT32
    }
  }
  attr {
    key: "_class"
    value {
      list {
        s: "loc:@stackConv/weights"
      }
    }
  }
  attr {
    key: "_output_shapes"
    value {
      list {
        shape {
          dim {
            size: 1
          }
          dim {
            size: 1
          }
          dim {
            size: 8
          }
          dim {
            size: 50
          }
        }
      }
    }
  }
  attr {
    key: "dtype"
    value {
      type: DT_FLOAT
    }
  }
  attr {
    key: "seed"
    value {
      i: 0
    }
  }
  attr {
    key: "seed2"
    value {
      i: 0
    }
  }
}
node {
  name: "stackConv/weights/Initializer/truncated_normal/mul"
  op: "Mul"
  input: "stackConv/weights/Initializer/truncated_normal/TruncatedNormal"
  input: "stackConv/weights/Initializer/truncated_normal/stddev"
  attr {
    key: "T"
    value {
      type: DT_FLOAT
    }
  }
  attr {
    key: "_class"
    value {
      list {
        s: "loc:@stackConv/weights"
      }
    }
  }
  attr {
    key: "_output_shapes"
    value {
      list {
        shape {
          dim {
            size: 1
          }
          dim {
            size: 1
          }
          dim {
            size: 8
          }
          dim {
            size: 50
          }
        }
      }
    }
  }
}
node {
  name: "stackConv/weights/Initializer/truncated_normal"
  op: "Add"
  input: "stackConv/weights/Initializer/truncated_normal/mul"
  input: "stackConv/weights/Initializer/truncated_normal/mean"
  attr {
    key: "T"
    value {
      type: DT_FLOAT
    }
  }
  attr {
    key: "_class"
    value {
      list {
        s: "loc:@stackConv/weights"
      }
    }
  }
  attr {
    key: "_output_shapes"
    value {
      list {
        shape {
          dim {
            size: 1
          }
          dim {
            size: 1
          }
          dim {
            size: 8
          }
          dim {
            size: 50
          }
        }
      }
    }
  }
}
node {
  name: "stackConv/weights/Assign"
  op: "Assign"
  input: "stackConv/weights"
  input: "stackConv/weights/Initializer/truncated_normal"
  attr {
    key: "T"
    value {
      type: DT_FLOAT
    }
  }
  attr {
    key: "_class"
    value {
      list {
        s: "loc:@stackConv/weights"
      }
    }
  }
  attr {
    key: "_output_shapes"
    value {
      list {
        shape {
          dim {
            size: 1
          }
          dim {
            size: 1
          }
          dim {
            size: 8
          }
          dim {
            size: 50
          }
        }
      }
    }
  }
  attr {
    key: "use_locking"
    value {
      b: true
    }
  }
  attr {
    key: "validate_shape"
    value {
      b: true
    }
  }
}
node {
  name: "stackConv/weights/read"
  op: "Identity"
  input: "stackConv/weights"
  attr {
    key: "T"
    value {
      type: DT_FLOAT
    }
  }
  attr {
    key: "_class"
    value {
      list {
        s: "loc:@stackConv/weights"
      }
    }
  }
  attr {
    key: "_output_shapes"
    value {
      list {
        shape {
          dim {
            size: 1
          }
          dim {
            size: 1
          }
          dim {
            size: 8
          }
          dim {
            size: 50
          }
        }
      }
    }
  }
}
node {
  name: "stackConv/L2Loss"
  op: "L2Loss"
  input: "stackConv/weights/read"
  attr {
    key: "T"
    value {
      type: DT_FLOAT
    }
  }
  attr {
    key: "_output_shapes"
    value {
      list {
        shape {
        }
      }
    }
  }
}
node {
  name: "stackConv/weightLoss/y"
  op: "Const"
  attr {
    key: "_output_shapes"
    value {
      list {
        shape {
        }
      }
    }
  }
  attr {
    key: "dtype"
    value {
      type: DT_FLOAT
    }
  }
  attr {
    key: "value"
    value {
      tensor {
        dtype: DT_FLOAT
        tensor_shape {
        }
        float_val: 0.10000000149011612
      }
    }
  }
}
node {
  name: "stackConv/weightLoss"
  op: "Mul"
  input: "stackConv/L2Loss"
  input: "stackConv/weightLoss/y"
  attr {
    key: "T"
    value {
      type: DT_FLOAT
    }
  }
  attr {
    key: "_output_shapes"
    value {
      list {
        shape {
        }
      }
    }
  }
}
node {
  name: "stackConv/Conv2D"
  op: "Conv2D"
  input: "shuffle_batch"
  input: "stackConv/weights/read"
  attr {
    key: "T"
    value {
      type: DT_FLOAT
    }
  }
  attr {
    key: "_output_shapes"
    value {
      list {
        shape {
          dim {
            size: 1000
          }
          dim {
            size: 5
          }
          dim {
            size: 5
          }
          dim {
            size: 50
          }
        }
      }
    }
  }
  attr {
    key: "data_format"
    value {
      s: "NHWC"
    }
  }
  attr {
    key: "padding"
    value {
      s: "VALID"
    }
  }
  attr {
    key: "strides"
    value {
      list {
        i: 1
        i: 1
        i: 1
        i: 1
      }
    }
  }
  attr {
    key: "use_cudnn_on_gpu"
    value {
      b: true
    }
  }
}
node {
  name: "stackConv/biases"
  op: "Variable"
  attr {
    key: "_output_shapes"
    value {
      list {
        shape {
          dim {
            size: 50
          }
        }
      }
    }
  }
  attr {
    key: "container"
    value {
      s: ""
    }
  }
  attr {
    key: "dtype"
    value {
      type: DT_FLOAT
    }
  }
  attr {
    key: "shape"
    value {
      shape {
        dim {
          size: 50
        }
      }
    }
  }
  attr {
    key: "shared_name"
    value {
      s: ""
    }
  }
}
node {
  name: "stackConv/biases/Initializer/truncated_normal/shape"
  op: "Const"
  attr {
    key: "_class"
    value {
      list {
        s: "loc:@stackConv/biases"
      }
    }
  }
  attr {
    key: "_output_shapes"
    value {
      list {
        shape {
          dim {
            size: 1
          }
        }
      }
    }
  }
  attr {
    key: "dtype"
    value {
      type: DT_INT32
    }
  }
  attr {
    key: "value"
    value {
      tensor {
        dtype: DT_INT32
        tensor_shape {
          dim {
            size: 1
          }
        }
        int_val: 50
      }
    }
  }
}
node {
  name: "stackConv/biases/Initializer/truncated_normal/mean"
  op: "Const"
  attr {
    key: "_class"
    value {
      list {
        s: "loc:@stackConv/biases"
      }
    }
  }
  attr {
    key: "_output_shapes"
    value {
      list {
        shape {
        }
      }
    }
  }
  attr {
    key: "dtype"
    value {
      type: DT_FLOAT
    }
  }
  attr {
    key: "value"
    value {
      tensor {
        dtype: DT_FLOAT
        tensor_shape {
        }
        float_val: 0.0
      }
    }
  }
}
node {
  name: "stackConv/biases/Initializer/truncated_normal/stddev"
  op: "Const"
  attr {
    key: "_class"
    value {
      list {
        s: "loc:@stackConv/biases"
      }
    }
  }
  attr {
    key: "_output_shapes"
    value {
      list {
        shape {
        }
      }
    }
  }
  attr {
    key: "dtype"
    value {
      type: DT_FLOAT
    }
  }
  attr {
    key: "value"
    value {
      tensor {
        dtype: DT_FLOAT
        tensor_shape {
        }
        float_val: 1.0
      }
    }
  }
}
node {
  name: "stackConv/biases/Initializer/truncated_normal/TruncatedNormal"
  op: "TruncatedNormal"
  input: "stackConv/biases/Initializer/truncated_normal/shape"
  attr {
    key: "T"
    value {
      type: DT_INT32
    }
  }
  attr {
    key: "_class"
    value {
      list {
        s: "loc:@stackConv/biases"
      }
    }
  }
  attr {
    key: "_output_shapes"
    value {
      list {
        shape {
          dim {
            size: 50
          }
        }
      }
    }
  }
  attr {
    key: "dtype"
    value {
      type: DT_FLOAT
    }
  }
  attr {
    key: "seed"
    value {
      i: 0
    }
  }
  attr {
    key: "seed2"
    value {
      i: 0
    }
  }
}
node {
  name: "stackConv/biases/Initializer/truncated_normal/mul"
  op: "Mul"
  input: "stackConv/biases/Initializer/truncated_normal/TruncatedNormal"
  input: "stackConv/biases/Initializer/truncated_normal/stddev"
  attr {
    key: "T"
    value {
      type: DT_FLOAT
    }
  }
  attr {
    key: "_class"
    value {
      list {
        s: "loc:@stackConv/biases"
      }
    }
  }
  attr {
    key: "_output_shapes"
    value {
      list {
        shape {
          dim {
            size: 50
          }
        }
      }
    }
  }
}
node {
  name: "stackConv/biases/Initializer/truncated_normal"
  op: "Add"
  input: "stackConv/biases/Initializer/truncated_normal/mul"
  input: "stackConv/biases/Initializer/truncated_normal/mean"
  attr {
    key: "T"
    value {
      type: DT_FLOAT
    }
  }
  attr {
    key: "_class"
    value {
      list {
        s: "loc:@stackConv/biases"
      }
    }
  }
  attr {
    key: "_output_shapes"
    value {
      list {
        shape {
          dim {
            size: 50
          }
        }
      }
    }
  }
}
node {
  name: "stackConv/biases/Assign"
  op: "Assign"
  input: "stackConv/biases"
  input: "stackConv/biases/Initializer/truncated_normal"
  attr {
    key: "T"
    value {
      type: DT_FLOAT
    }
  }
  attr {
    key: "_class"
    value {
      list {
        s: "loc:@stackConv/biases"
      }
    }
  }
  attr {
    key: "_output_shapes"
    value {
      list {
        shape {
          dim {
            size: 50
          }
        }
      }
    }
  }
  attr {
    key: "use_locking"
    value {
      b: true
    }
  }
  attr {
    key: "validate_shape"
    value {
      b: true
    }
  }
}
node {
  name: "stackConv/biases/read"
  op: "Identity"
  input: "stackConv/biases"
  attr {
    key: "T"
    value {
      type: DT_FLOAT
    }
  }
  attr {
    key: "_class"
    value {
      list {
        s: "loc:@stackConv/biases"
      }
    }
  }
  attr {
    key: "_output_shapes"
    value {
      list {
        shape {
          dim {
            size: 50
          }
        }
      }
    }
  }
}
node {
  name: "stackConv/BiasAdd"
  op: "BiasAdd"
  input: "stackConv/Conv2D"
  input: "stackConv/biases/read"
  attr {
    key: "T"
    value {
      type: DT_FLOAT
    }
  }
  attr {
    key: "_output_shapes"
    value {
      list {
        shape {
          dim {
            size: 1000
          }
          dim {
            size: 5
          }
          dim {
            size: 5
          }
          dim {
            size: 50
          }
        }
      }
    }
  }
  attr {
    key: "data_format"
    value {
      s: "NHWC"
    }
  }
}
node {
  name: "stackConv/stackConv"
  op: "Tanh"
  input: "stackConv/BiasAdd"
  attr {
    key: "T"
    value {
      type: DT_FLOAT
    }
  }
  attr {
    key: "_output_shapes"
    value {
      list {
        shape {
          dim {
            size: 1000
          }
          dim {
            size: 5
          }
          dim {
            size: 5
          }
          dim {
            size: 50
          }
        }
      }
    }
  }
}
node {
  name: "stackConv/stackConv/stackConv/activations/tag"
  op: "Const"
  attr {
    key: "_output_shapes"
    value {
      list {
        shape {
        }
      }
    }
  }
  attr {
    key: "dtype"
    value {
      type: DT_STRING
    }
  }
  attr {
    key: "value"
    value {
      tensor {
        dtype: DT_STRING
        tensor_shape {
        }
        string_val: "stackConv/stackConv/stackConv/activations"
      }
    }
  }
}
node {
  name: "stackConv/stackConv/stackConv/activations"
  op: "HistogramSummary"
  input: "stackConv/stackConv/stackConv/activations/tag"
  input: "stackConv/stackConv"
  attr {
    key: "T"
    value {
      type: DT_FLOAT
    }
  }
  attr {
    key: "_output_shapes"
    value {
      list {
        shape {
        }
      }
    }
  }
}
node {
  name: "stackConv/zero_fraction/zero"
  op: "Const"
  attr {
    key: "_output_shapes"
    value {
      list {
        shape {
        }
      }
    }
  }
  attr {
    key: "dtype"
    value {
      type: DT_FLOAT
    }
  }
  attr {
    key: "value"
    value {
      tensor {
        dtype: DT_FLOAT
        tensor_shape {
        }
        float_val: 0.0
      }
    }
  }
}
node {
  name: "stackConv/zero_fraction/Equal"
  op: "Equal"
  input: "stackConv/stackConv"
  input: "stackConv/zero_fraction/zero"
  attr {
    key: "T"
    value {
      type: DT_FLOAT
    }
  }
  attr {
    key: "_output_shapes"
    value {
      list {
        shape {
          dim {
            size: 1000
          }
          dim {
            size: 5
          }
          dim {
            size: 5
          }
          dim {
            size: 50
          }
        }
      }
    }
  }
}
node {
  name: "stackConv/zero_fraction/Cast"
  op: "Cast"
  input: "stackConv/zero_fraction/Equal"
  attr {
    key: "DstT"
    value {
      type: DT_FLOAT
    }
  }
  attr {
    key: "SrcT"
    value {
      type: DT_BOOL
    }
  }
  attr {
    key: "_output_shapes"
    value {
      list {
        shape {
          dim {
            size: 1000
          }
          dim {
            size: 5
          }
          dim {
            size: 5
          }
          dim {
            size: 50
          }
        }
      }
    }
  }
}
node {
  name: "stackConv/zero_fraction/Const"
  op: "Const"
  attr {
    key: "_output_shapes"
    value {
      list {
        shape {
          dim {
            size: 4
          }
        }
      }
    }
  }
  attr {
    key: "dtype"
    value {
      type: DT_INT32
    }
  }
  attr {
    key: "value"
    value {
      tensor {
        dtype: DT_INT32
        tensor_shape {
          dim {
            size: 4
          }
        }
        tensor_content: "\000\000\000\000\001\000\000\000\002\000\000\000\003\000\000\000"
      }
    }
  }
}
node {
  name: "stackConv/zero_fraction/Mean"
  op: "Mean"
  input: "stackConv/zero_fraction/Cast"
  input: "stackConv/zero_fraction/Const"
  attr {
    key: "T"
    value {
      type: DT_FLOAT
    }
  }
  attr {
    key: "Tidx"
    value {
      type: DT_INT32
    }
  }
  attr {
    key: "_output_shapes"
    value {
      list {
        shape {
        }
      }
    }
  }
  attr {
    key: "keep_dims"
    value {
      b: false
    }
  }
}
node {
  name: "stackConv/stackConv/stackConvsparsity/tags"
  op: "Const"
  attr {
    key: "_output_shapes"
    value {
      list {
        shape {
        }
      }
    }
  }
  attr {
    key: "dtype"
    value {
      type: DT_STRING
    }
  }
  attr {
    key: "value"
    value {
      tensor {
        dtype: DT_STRING
        tensor_shape {
        }
        string_val: "stackConv/stackConv/stackConvsparsity"
      }
    }
  }
}
node {
  name: "stackConv/stackConv/stackConvsparsity"
  op: "ScalarSummary"
  input: "stackConv/stackConv/stackConvsparsity/tags"
  input: "stackConv/zero_fraction/Mean"
  attr {
    key: "T"
    value {
      type: DT_FLOAT
    }
  }
  attr {
    key: "_output_shapes"
    value {
      list {
        shape {
        }
      }
    }
  }
}
node {
  name: "flattenConv/weights"
  op: "Variable"
  attr {
    key: "_output_shapes"
    value {
      list {
        shape {
          dim {
            size: 1
          }
          dim {
            size: 1
          }
          dim {
            size: 50
          }
          dim {
            size: 25
          }
        }
      }
    }
  }
  attr {
    key: "container"
    value {
      s: ""
    }
  }
  attr {
    key: "dtype"
    value {
      type: DT_FLOAT
    }
  }
  attr {
    key: "shape"
    value {
      shape {
        dim {
          size: 1
        }
        dim {
          size: 1
        }
        dim {
          size: 50
        }
        dim {
          size: 25
        }
      }
    }
  }
  attr {
    key: "shared_name"
    value {
      s: ""
    }
  }
}
node {
  name: "flattenConv/weights/Initializer/truncated_normal/shape"
  op: "Const"
  attr {
    key: "_class"
    value {
      list {
        s: "loc:@flattenConv/weights"
      }
    }
  }
  attr {
    key: "_output_shapes"
    value {
      list {
        shape {
          dim {
            size: 4
          }
        }
      }
    }
  }
  attr {
    key: "dtype"
    value {
      type: DT_INT32
    }
  }
  attr {
    key: "value"
    value {
      tensor {
        dtype: DT_INT32
        tensor_shape {
          dim {
            size: 4
          }
        }
        tensor_content: "\001\000\000\000\001\000\000\0002\000\000\000\031\000\000\000"
      }
    }
  }
}
node {
  name: "flattenConv/weights/Initializer/truncated_normal/mean"
  op: "Const"
  attr {
    key: "_class"
    value {
      list {
        s: "loc:@flattenConv/weights"
      }
    }
  }
  attr {
    key: "_output_shapes"
    value {
      list {
        shape {
        }
      }
    }
  }
  attr {
    key: "dtype"
    value {
      type: DT_FLOAT
    }
  }
  attr {
    key: "value"
    value {
      tensor {
        dtype: DT_FLOAT
        tensor_shape {
        }
        float_val: 0.0
      }
    }
  }
}
node {
  name: "flattenConv/weights/Initializer/truncated_normal/stddev"
  op: "Const"
  attr {
    key: "_class"
    value {
      list {
        s: "loc:@flattenConv/weights"
      }
    }
  }
  attr {
    key: "_output_shapes"
    value {
      list {
        shape {
        }
      }
    }
  }
  attr {
    key: "dtype"
    value {
      type: DT_FLOAT
    }
  }
  attr {
    key: "value"
    value {
      tensor {
        dtype: DT_FLOAT
        tensor_shape {
        }
        float_val: 0.05000000074505806
      }
    }
  }
}
node {
  name: "flattenConv/weights/Initializer/truncated_normal/TruncatedNormal"
  op: "TruncatedNormal"
  input: "flattenConv/weights/Initializer/truncated_normal/shape"
  attr {
    key: "T"
    value {
      type: DT_INT32
    }
  }
  attr {
    key: "_class"
    value {
      list {
        s: "loc:@flattenConv/weights"
      }
    }
  }
  attr {
    key: "_output_shapes"
    value {
      list {
        shape {
          dim {
            size: 1
          }
          dim {
            size: 1
          }
          dim {
            size: 50
          }
          dim {
            size: 25
          }
        }
      }
    }
  }
  attr {
    key: "dtype"
    value {
      type: DT_FLOAT
    }
  }
  attr {
    key: "seed"
    value {
      i: 0
    }
  }
  attr {
    key: "seed2"
    value {
      i: 0
    }
  }
}
node {
  name: "flattenConv/weights/Initializer/truncated_normal/mul"
  op: "Mul"
  input: "flattenConv/weights/Initializer/truncated_normal/TruncatedNormal"
  input: "flattenConv/weights/Initializer/truncated_normal/stddev"
  attr {
    key: "T"
    value {
      type: DT_FLOAT
    }
  }
  attr {
    key: "_class"
    value {
      list {
        s: "loc:@flattenConv/weights"
      }
    }
  }
  attr {
    key: "_output_shapes"
    value {
      list {
        shape {
          dim {
            size: 1
          }
          dim {
            size: 1
          }
          dim {
            size: 50
          }
          dim {
            size: 25
          }
        }
      }
    }
  }
}
node {
  name: "flattenConv/weights/Initializer/truncated_normal"
  op: "Add"
  input: "flattenConv/weights/Initializer/truncated_normal/mul"
  input: "flattenConv/weights/Initializer/truncated_normal/mean"
  attr {
    key: "T"
    value {
      type: DT_FLOAT
    }
  }
  attr {
    key: "_class"
    value {
      list {
        s: "loc:@flattenConv/weights"
      }
    }
  }
  attr {
    key: "_output_shapes"
    value {
      list {
        shape {
          dim {
            size: 1
          }
          dim {
            size: 1
          }
          dim {
            size: 50
          }
          dim {
            size: 25
          }
        }
      }
    }
  }
}
node {
  name: "flattenConv/weights/Assign"
  op: "Assign"
  input: "flattenConv/weights"
  input: "flattenConv/weights/Initializer/truncated_normal"
  attr {
    key: "T"
    value {
      type: DT_FLOAT
    }
  }
  attr {
    key: "_class"
    value {
      list {
        s: "loc:@flattenConv/weights"
      }
    }
  }
  attr {
    key: "_output_shapes"
    value {
      list {
        shape {
          dim {
            size: 1
          }
          dim {
            size: 1
          }
          dim {
            size: 50
          }
          dim {
            size: 25
          }
        }
      }
    }
  }
  attr {
    key: "use_locking"
    value {
      b: true
    }
  }
  attr {
    key: "validate_shape"
    value {
      b: true
    }
  }
}
node {
  name: "flattenConv/weights/read"
  op: "Identity"
  input: "flattenConv/weights"
  attr {
    key: "T"
    value {
      type: DT_FLOAT
    }
  }
  attr {
    key: "_class"
    value {
      list {
        s: "loc:@flattenConv/weights"
      }
    }
  }
  attr {
    key: "_output_shapes"
    value {
      list {
        shape {
          dim {
            size: 1
          }
          dim {
            size: 1
          }
          dim {
            size: 50
          }
          dim {
            size: 25
          }
        }
      }
    }
  }
}
node {
  name: "flattenConv/L2Loss"
  op: "L2Loss"
  input: "flattenConv/weights/read"
  attr {
    key: "T"
    value {
      type: DT_FLOAT
    }
  }
  attr {
    key: "_output_shapes"
    value {
      list {
        shape {
        }
      }
    }
  }
}
node {
  name: "flattenConv/weightLoss/y"
  op: "Const"
  attr {
    key: "_output_shapes"
    value {
      list {
        shape {
        }
      }
    }
  }
  attr {
    key: "dtype"
    value {
      type: DT_FLOAT
    }
  }
  attr {
    key: "value"
    value {
      tensor {
        dtype: DT_FLOAT
        tensor_shape {
        }
        float_val: 0.10000000149011612
      }
    }
  }
}
node {
  name: "flattenConv/weightLoss"
  op: "Mul"
  input: "flattenConv/L2Loss"
  input: "flattenConv/weightLoss/y"
  attr {
    key: "T"
    value {
      type: DT_FLOAT
    }
  }
  attr {
    key: "_output_shapes"
    value {
      list {
        shape {
        }
      }
    }
  }
}
node {
  name: "flattenConv/Conv2D"
  op: "Conv2D"
  input: "stackConv/stackConv"
  input: "flattenConv/weights/read"
  attr {
    key: "T"
    value {
      type: DT_FLOAT
    }
  }
  attr {
    key: "_output_shapes"
    value {
      list {
        shape {
          dim {
            size: 1000
          }
          dim {
            size: 5
          }
          dim {
            size: 5
          }
          dim {
            size: 25
          }
        }
      }
    }
  }
  attr {
    key: "data_format"
    value {
      s: "NHWC"
    }
  }
  attr {
    key: "padding"
    value {
      s: "VALID"
    }
  }
  attr {
    key: "strides"
    value {
      list {
        i: 1
        i: 1
        i: 1
        i: 1
      }
    }
  }
  attr {
    key: "use_cudnn_on_gpu"
    value {
      b: true
    }
  }
}
node {
  name: "flattenConv/biases"
  op: "Variable"
  attr {
    key: "_output_shapes"
    value {
      list {
        shape {
          dim {
            size: 25
          }
        }
      }
    }
  }
  attr {
    key: "container"
    value {
      s: ""
    }
  }
  attr {
    key: "dtype"
    value {
      type: DT_FLOAT
    }
  }
  attr {
    key: "shape"
    value {
      shape {
        dim {
          size: 25
        }
      }
    }
  }
  attr {
    key: "shared_name"
    value {
      s: ""
    }
  }
}
node {
  name: "flattenConv/biases/Initializer/truncated_normal/shape"
  op: "Const"
  attr {
    key: "_class"
    value {
      list {
        s: "loc:@flattenConv/biases"
      }
    }
  }
  attr {
    key: "_output_shapes"
    value {
      list {
        shape {
          dim {
            size: 1
          }
        }
      }
    }
  }
  attr {
    key: "dtype"
    value {
      type: DT_INT32
    }
  }
  attr {
    key: "value"
    value {
      tensor {
        dtype: DT_INT32
        tensor_shape {
          dim {
            size: 1
          }
        }
        int_val: 25
      }
    }
  }
}
node {
  name: "flattenConv/biases/Initializer/truncated_normal/mean"
  op: "Const"
  attr {
    key: "_class"
    value {
      list {
        s: "loc:@flattenConv/biases"
      }
    }
  }
  attr {
    key: "_output_shapes"
    value {
      list {
        shape {
        }
      }
    }
  }
  attr {
    key: "dtype"
    value {
      type: DT_FLOAT
    }
  }
  attr {
    key: "value"
    value {
      tensor {
        dtype: DT_FLOAT
        tensor_shape {
        }
        float_val: 0.0
      }
    }
  }
}
node {
  name: "flattenConv/biases/Initializer/truncated_normal/stddev"
  op: "Const"
  attr {
    key: "_class"
    value {
      list {
        s: "loc:@flattenConv/biases"
      }
    }
  }
  attr {
    key: "_output_shapes"
    value {
      list {
        shape {
        }
      }
    }
  }
  attr {
    key: "dtype"
    value {
      type: DT_FLOAT
    }
  }
  attr {
    key: "value"
    value {
      tensor {
        dtype: DT_FLOAT
        tensor_shape {
        }
        float_val: 1.0
      }
    }
  }
}
node {
  name: "flattenConv/biases/Initializer/truncated_normal/TruncatedNormal"
  op: "TruncatedNormal"
  input: "flattenConv/biases/Initializer/truncated_normal/shape"
  attr {
    key: "T"
    value {
      type: DT_INT32
    }
  }
  attr {
    key: "_class"
    value {
      list {
        s: "loc:@flattenConv/biases"
      }
    }
  }
  attr {
    key: "_output_shapes"
    value {
      list {
        shape {
          dim {
            size: 25
          }
        }
      }
    }
  }
  attr {
    key: "dtype"
    value {
      type: DT_FLOAT
    }
  }
  attr {
    key: "seed"
    value {
      i: 0
    }
  }
  attr {
    key: "seed2"
    value {
      i: 0
    }
  }
}
node {
  name: "flattenConv/biases/Initializer/truncated_normal/mul"
  op: "Mul"
  input: "flattenConv/biases/Initializer/truncated_normal/TruncatedNormal"
  input: "flattenConv/biases/Initializer/truncated_normal/stddev"
  attr {
    key: "T"
    value {
      type: DT_FLOAT
    }
  }
  attr {
    key: "_class"
    value {
      list {
        s: "loc:@flattenConv/biases"
      }
    }
  }
  attr {
    key: "_output_shapes"
    value {
      list {
        shape {
          dim {
            size: 25
          }
        }
      }
    }
  }
}
node {
  name: "flattenConv/biases/Initializer/truncated_normal"
  op: "Add"
  input: "flattenConv/biases/Initializer/truncated_normal/mul"
  input: "flattenConv/biases/Initializer/truncated_normal/mean"
  attr {
    key: "T"
    value {
      type: DT_FLOAT
    }
  }
  attr {
    key: "_class"
    value {
      list {
        s: "loc:@flattenConv/biases"
      }
    }
  }
  attr {
    key: "_output_shapes"
    value {
      list {
        shape {
          dim {
            size: 25
          }
        }
      }
    }
  }
}
node {
  name: "flattenConv/biases/Assign"
  op: "Assign"
  input: "flattenConv/biases"
  input: "flattenConv/biases/Initializer/truncated_normal"
  attr {
    key: "T"
    value {
      type: DT_FLOAT
    }
  }
  attr {
    key: "_class"
    value {
      list {
        s: "loc:@flattenConv/biases"
      }
    }
  }
  attr {
    key: "_output_shapes"
    value {
      list {
        shape {
          dim {
            size: 25
          }
        }
      }
    }
  }
  attr {
    key: "use_locking"
    value {
      b: true
    }
  }
  attr {
    key: "validate_shape"
    value {
      b: true
    }
  }
}
node {
  name: "flattenConv/biases/read"
  op: "Identity"
  input: "flattenConv/biases"
  attr {
    key: "T"
    value {
      type: DT_FLOAT
    }
  }
  attr {
    key: "_class"
    value {
      list {
        s: "loc:@flattenConv/biases"
      }
    }
  }
  attr {
    key: "_output_shapes"
    value {
      list {
        shape {
          dim {
            size: 25
          }
        }
      }
    }
  }
}
node {
  name: "flattenConv/BiasAdd"
  op: "BiasAdd"
  input: "flattenConv/Conv2D"
  input: "flattenConv/biases/read"
  attr {
    key: "T"
    value {
      type: DT_FLOAT
    }
  }
  attr {
    key: "_output_shapes"
    value {
      list {
        shape {
          dim {
            size: 1000
          }
          dim {
            size: 5
          }
          dim {
            size: 5
          }
          dim {
            size: 25
          }
        }
      }
    }
  }
  attr {
    key: "data_format"
    value {
      s: "NHWC"
    }
  }
}
node {
  name: "flattenConv/flattenConv"
  op: "Tanh"
  input: "flattenConv/BiasAdd"
  attr {
    key: "T"
    value {
      type: DT_FLOAT
    }
  }
  attr {
    key: "_output_shapes"
    value {
      list {
        shape {
          dim {
            size: 1000
          }
          dim {
            size: 5
          }
          dim {
            size: 5
          }
          dim {
            size: 25
          }
        }
      }
    }
  }
}
node {
  name: "flattenConv/flattenConv/flattenConv/activations/tag"
  op: "Const"
  attr {
    key: "_output_shapes"
    value {
      list {
        shape {
        }
      }
    }
  }
  attr {
    key: "dtype"
    value {
      type: DT_STRING
    }
  }
  attr {
    key: "value"
    value {
      tensor {
        dtype: DT_STRING
        tensor_shape {
        }
        string_val: "flattenConv/flattenConv/flattenConv/activations"
      }
    }
  }
}
node {
  name: "flattenConv/flattenConv/flattenConv/activations"
  op: "HistogramSummary"
  input: "flattenConv/flattenConv/flattenConv/activations/tag"
  input: "flattenConv/flattenConv"
  attr {
    key: "T"
    value {
      type: DT_FLOAT
    }
  }
  attr {
    key: "_output_shapes"
    value {
      list {
        shape {
        }
      }
    }
  }
}
node {
  name: "flattenConv/zero_fraction/zero"
  op: "Const"
  attr {
    key: "_output_shapes"
    value {
      list {
        shape {
        }
      }
    }
  }
  attr {
    key: "dtype"
    value {
      type: DT_FLOAT
    }
  }
  attr {
    key: "value"
    value {
      tensor {
        dtype: DT_FLOAT
        tensor_shape {
        }
        float_val: 0.0
      }
    }
  }
}
node {
  name: "flattenConv/zero_fraction/Equal"
  op: "Equal"
  input: "flattenConv/flattenConv"
  input: "flattenConv/zero_fraction/zero"
  attr {
    key: "T"
    value {
      type: DT_FLOAT
    }
  }
  attr {
    key: "_output_shapes"
    value {
      list {
        shape {
          dim {
            size: 1000
          }
          dim {
            size: 5
          }
          dim {
            size: 5
          }
          dim {
            size: 25
          }
        }
      }
    }
  }
}
node {
  name: "flattenConv/zero_fraction/Cast"
  op: "Cast"
  input: "flattenConv/zero_fraction/Equal"
  attr {
    key: "DstT"
    value {
      type: DT_FLOAT
    }
  }
  attr {
    key: "SrcT"
    value {
      type: DT_BOOL
    }
  }
  attr {
    key: "_output_shapes"
    value {
      list {
        shape {
          dim {
            size: 1000
          }
          dim {
            size: 5
          }
          dim {
            size: 5
          }
          dim {
            size: 25
          }
        }
      }
    }
  }
}
node {
  name: "flattenConv/zero_fraction/Const"
  op: "Const"
  attr {
    key: "_output_shapes"
    value {
      list {
        shape {
          dim {
            size: 4
          }
        }
      }
    }
  }
  attr {
    key: "dtype"
    value {
      type: DT_INT32
    }
  }
  attr {
    key: "value"
    value {
      tensor {
        dtype: DT_INT32
        tensor_shape {
          dim {
            size: 4
          }
        }
        tensor_content: "\000\000\000\000\001\000\000\000\002\000\000\000\003\000\000\000"
      }
    }
  }
}
node {
  name: "flattenConv/zero_fraction/Mean"
  op: "Mean"
  input: "flattenConv/zero_fraction/Cast"
  input: "flattenConv/zero_fraction/Const"
  attr {
    key: "T"
    value {
      type: DT_FLOAT
    }
  }
  attr {
    key: "Tidx"
    value {
      type: DT_INT32
    }
  }
  attr {
    key: "_output_shapes"
    value {
      list {
        shape {
        }
      }
    }
  }
  attr {
    key: "keep_dims"
    value {
      b: false
    }
  }
}
node {
  name: "flattenConv/flattenConv/flattenConvsparsity/tags"
  op: "Const"
  attr {
    key: "_output_shapes"
    value {
      list {
        shape {
        }
      }
    }
  }
  attr {
    key: "dtype"
    value {
      type: DT_STRING
    }
  }
  attr {
    key: "value"
    value {
      tensor {
        dtype: DT_STRING
        tensor_shape {
        }
        string_val: "flattenConv/flattenConv/flattenConvsparsity"
      }
    }
  }
}
node {
  name: "flattenConv/flattenConv/flattenConvsparsity"
  op: "ScalarSummary"
  input: "flattenConv/flattenConv/flattenConvsparsity/tags"
  input: "flattenConv/zero_fraction/Mean"
  attr {
    key: "T"
    value {
      type: DT_FLOAT
    }
  }
  attr {
    key: "_output_shapes"
    value {
      list {
        shape {
        }
      }
    }
  }
}
node {
  name: "boardConv/weights"
  op: "Variable"
  attr {
    key: "_output_shapes"
    value {
      list {
        shape {
          dim {
            size: 3
          }
          dim {
            size: 3
          }
          dim {
            size: 25
          }
          dim {
            size: 50
          }
        }
      }
    }
  }
  attr {
    key: "container"
    value {
      s: ""
    }
  }
  attr {
    key: "dtype"
    value {
      type: DT_FLOAT
    }
  }
  attr {
    key: "shape"
    value {
      shape {
        dim {
          size: 3
        }
        dim {
          size: 3
        }
        dim {
          size: 25
        }
        dim {
          size: 50
        }
      }
    }
  }
  attr {
    key: "shared_name"
    value {
      s: ""
    }
  }
}
node {
  name: "boardConv/weights/Initializer/truncated_normal/shape"
  op: "Const"
  attr {
    key: "_class"
    value {
      list {
        s: "loc:@boardConv/weights"
      }
    }
  }
  attr {
    key: "_output_shapes"
    value {
      list {
        shape {
          dim {
            size: 4
          }
        }
      }
    }
  }
  attr {
    key: "dtype"
    value {
      type: DT_INT32
    }
  }
  attr {
    key: "value"
    value {
      tensor {
        dtype: DT_INT32
        tensor_shape {
          dim {
            size: 4
          }
        }
        tensor_content: "\003\000\000\000\003\000\000\000\031\000\000\0002\000\000\000"
      }
    }
  }
}
node {
  name: "boardConv/weights/Initializer/truncated_normal/mean"
  op: "Const"
  attr {
    key: "_class"
    value {
      list {
        s: "loc:@boardConv/weights"
      }
    }
  }
  attr {
    key: "_output_shapes"
    value {
      list {
        shape {
        }
      }
    }
  }
  attr {
    key: "dtype"
    value {
      type: DT_FLOAT
    }
  }
  attr {
    key: "value"
    value {
      tensor {
        dtype: DT_FLOAT
        tensor_shape {
        }
        float_val: 0.0
      }
    }
  }
}
node {
  name: "boardConv/weights/Initializer/truncated_normal/stddev"
  op: "Const"
  attr {
    key: "_class"
    value {
      list {
        s: "loc:@boardConv/weights"
      }
    }
  }
  attr {
    key: "_output_shapes"
    value {
      list {
        shape {
        }
      }
    }
  }
  attr {
    key: "dtype"
    value {
      type: DT_FLOAT
    }
  }
  attr {
    key: "value"
    value {
      tensor {
        dtype: DT_FLOAT
        tensor_shape {
        }
        float_val: 0.05000000074505806
      }
    }
  }
}
node {
  name: "boardConv/weights/Initializer/truncated_normal/TruncatedNormal"
  op: "TruncatedNormal"
  input: "boardConv/weights/Initializer/truncated_normal/shape"
  attr {
    key: "T"
    value {
      type: DT_INT32
    }
  }
  attr {
    key: "_class"
    value {
      list {
        s: "loc:@boardConv/weights"
      }
    }
  }
  attr {
    key: "_output_shapes"
    value {
      list {
        shape {
          dim {
            size: 3
          }
          dim {
            size: 3
          }
          dim {
            size: 25
          }
          dim {
            size: 50
          }
        }
      }
    }
  }
  attr {
    key: "dtype"
    value {
      type: DT_FLOAT
    }
  }
  attr {
    key: "seed"
    value {
      i: 0
    }
  }
  attr {
    key: "seed2"
    value {
      i: 0
    }
  }
}
node {
  name: "boardConv/weights/Initializer/truncated_normal/mul"
  op: "Mul"
  input: "boardConv/weights/Initializer/truncated_normal/TruncatedNormal"
  input: "boardConv/weights/Initializer/truncated_normal/stddev"
  attr {
    key: "T"
    value {
      type: DT_FLOAT
    }
  }
  attr {
    key: "_class"
    value {
      list {
        s: "loc:@boardConv/weights"
      }
    }
  }
  attr {
    key: "_output_shapes"
    value {
      list {
        shape {
          dim {
            size: 3
          }
          dim {
            size: 3
          }
          dim {
            size: 25
          }
          dim {
            size: 50
          }
        }
      }
    }
  }
}
node {
  name: "boardConv/weights/Initializer/truncated_normal"
  op: "Add"
  input: "boardConv/weights/Initializer/truncated_normal/mul"
  input: "boardConv/weights/Initializer/truncated_normal/mean"
  attr {
    key: "T"
    value {
      type: DT_FLOAT
    }
  }
  attr {
    key: "_class"
    value {
      list {
        s: "loc:@boardConv/weights"
      }
    }
  }
  attr {
    key: "_output_shapes"
    value {
      list {
        shape {
          dim {
            size: 3
          }
          dim {
            size: 3
          }
          dim {
            size: 25
          }
          dim {
            size: 50
          }
        }
      }
    }
  }
}
node {
  name: "boardConv/weights/Assign"
  op: "Assign"
  input: "boardConv/weights"
  input: "boardConv/weights/Initializer/truncated_normal"
  attr {
    key: "T"
    value {
      type: DT_FLOAT
    }
  }
  attr {
    key: "_class"
    value {
      list {
        s: "loc:@boardConv/weights"
      }
    }
  }
  attr {
    key: "_output_shapes"
    value {
      list {
        shape {
          dim {
            size: 3
          }
          dim {
            size: 3
          }
          dim {
            size: 25
          }
          dim {
            size: 50
          }
        }
      }
    }
  }
  attr {
    key: "use_locking"
    value {
      b: true
    }
  }
  attr {
    key: "validate_shape"
    value {
      b: true
    }
  }
}
node {
  name: "boardConv/weights/read"
  op: "Identity"
  input: "boardConv/weights"
  attr {
    key: "T"
    value {
      type: DT_FLOAT
    }
  }
  attr {
    key: "_class"
    value {
      list {
        s: "loc:@boardConv/weights"
      }
    }
  }
  attr {
    key: "_output_shapes"
    value {
      list {
        shape {
          dim {
            size: 3
          }
          dim {
            size: 3
          }
          dim {
            size: 25
          }
          dim {
            size: 50
          }
        }
      }
    }
  }
}
node {
  name: "boardConv/L2Loss"
  op: "L2Loss"
  input: "boardConv/weights/read"
  attr {
    key: "T"
    value {
      type: DT_FLOAT
    }
  }
  attr {
    key: "_output_shapes"
    value {
      list {
        shape {
        }
      }
    }
  }
}
node {
  name: "boardConv/weightLoss/y"
  op: "Const"
  attr {
    key: "_output_shapes"
    value {
      list {
        shape {
        }
      }
    }
  }
  attr {
    key: "dtype"
    value {
      type: DT_FLOAT
    }
  }
  attr {
    key: "value"
    value {
      tensor {
        dtype: DT_FLOAT
        tensor_shape {
        }
        float_val: 0.10000000149011612
      }
    }
  }
}
node {
  name: "boardConv/weightLoss"
  op: "Mul"
  input: "boardConv/L2Loss"
  input: "boardConv/weightLoss/y"
  attr {
    key: "T"
    value {
      type: DT_FLOAT
    }
  }
  attr {
    key: "_output_shapes"
    value {
      list {
        shape {
        }
      }
    }
  }
}
node {
  name: "boardConv/Conv2D"
  op: "Conv2D"
  input: "flattenConv/flattenConv"
  input: "boardConv/weights/read"
  attr {
    key: "T"
    value {
      type: DT_FLOAT
    }
  }
  attr {
    key: "_output_shapes"
    value {
      list {
        shape {
          dim {
            size: 1000
          }
          dim {
            size: 3
          }
          dim {
            size: 3
          }
          dim {
            size: 50
          }
        }
      }
    }
  }
  attr {
    key: "data_format"
    value {
      s: "NHWC"
    }
  }
  attr {
    key: "padding"
    value {
      s: "VALID"
    }
  }
  attr {
    key: "strides"
    value {
      list {
        i: 1
        i: 1
        i: 1
        i: 1
      }
    }
  }
  attr {
    key: "use_cudnn_on_gpu"
    value {
      b: true
    }
  }
}
node {
  name: "boardConv/biases"
  op: "Variable"
  attr {
    key: "_output_shapes"
    value {
      list {
        shape {
          dim {
            size: 50
          }
        }
      }
    }
  }
  attr {
    key: "container"
    value {
      s: ""
    }
  }
  attr {
    key: "dtype"
    value {
      type: DT_FLOAT
    }
  }
  attr {
    key: "shape"
    value {
      shape {
        dim {
          size: 50
        }
      }
    }
  }
  attr {
    key: "shared_name"
    value {
      s: ""
    }
  }
}
node {
  name: "boardConv/biases/Initializer/truncated_normal/shape"
  op: "Const"
  attr {
    key: "_class"
    value {
      list {
        s: "loc:@boardConv/biases"
      }
    }
  }
  attr {
    key: "_output_shapes"
    value {
      list {
        shape {
          dim {
            size: 1
          }
        }
      }
    }
  }
  attr {
    key: "dtype"
    value {
      type: DT_INT32
    }
  }
  attr {
    key: "value"
    value {
      tensor {
        dtype: DT_INT32
        tensor_shape {
          dim {
            size: 1
          }
        }
        int_val: 50
      }
    }
  }
}
node {
  name: "boardConv/biases/Initializer/truncated_normal/mean"
  op: "Const"
  attr {
    key: "_class"
    value {
      list {
        s: "loc:@boardConv/biases"
      }
    }
  }
  attr {
    key: "_output_shapes"
    value {
      list {
        shape {
        }
      }
    }
  }
  attr {
    key: "dtype"
    value {
      type: DT_FLOAT
    }
  }
  attr {
    key: "value"
    value {
      tensor {
        dtype: DT_FLOAT
        tensor_shape {
        }
        float_val: 0.0
      }
    }
  }
}
node {
  name: "boardConv/biases/Initializer/truncated_normal/stddev"
  op: "Const"
  attr {
    key: "_class"
    value {
      list {
        s: "loc:@boardConv/biases"
      }
    }
  }
  attr {
    key: "_output_shapes"
    value {
      list {
        shape {
        }
      }
    }
  }
  attr {
    key: "dtype"
    value {
      type: DT_FLOAT
    }
  }
  attr {
    key: "value"
    value {
      tensor {
        dtype: DT_FLOAT
        tensor_shape {
        }
        float_val: 1.0
      }
    }
  }
}
node {
  name: "boardConv/biases/Initializer/truncated_normal/TruncatedNormal"
  op: "TruncatedNormal"
  input: "boardConv/biases/Initializer/truncated_normal/shape"
  attr {
    key: "T"
    value {
      type: DT_INT32
    }
  }
  attr {
    key: "_class"
    value {
      list {
        s: "loc:@boardConv/biases"
      }
    }
  }
  attr {
    key: "_output_shapes"
    value {
      list {
        shape {
          dim {
            size: 50
          }
        }
      }
    }
  }
  attr {
    key: "dtype"
    value {
      type: DT_FLOAT
    }
  }
  attr {
    key: "seed"
    value {
      i: 0
    }
  }
  attr {
    key: "seed2"
    value {
      i: 0
    }
  }
}
node {
  name: "boardConv/biases/Initializer/truncated_normal/mul"
  op: "Mul"
  input: "boardConv/biases/Initializer/truncated_normal/TruncatedNormal"
  input: "boardConv/biases/Initializer/truncated_normal/stddev"
  attr {
    key: "T"
    value {
      type: DT_FLOAT
    }
  }
  attr {
    key: "_class"
    value {
      list {
        s: "loc:@boardConv/biases"
      }
    }
  }
  attr {
    key: "_output_shapes"
    value {
      list {
        shape {
          dim {
            size: 50
          }
        }
      }
    }
  }
}
node {
  name: "boardConv/biases/Initializer/truncated_normal"
  op: "Add"
  input: "boardConv/biases/Initializer/truncated_normal/mul"
  input: "boardConv/biases/Initializer/truncated_normal/mean"
  attr {
    key: "T"
    value {
      type: DT_FLOAT
    }
  }
  attr {
    key: "_class"
    value {
      list {
        s: "loc:@boardConv/biases"
      }
    }
  }
  attr {
    key: "_output_shapes"
    value {
      list {
        shape {
          dim {
            size: 50
          }
        }
      }
    }
  }
}
node {
  name: "boardConv/biases/Assign"
  op: "Assign"
  input: "boardConv/biases"
  input: "boardConv/biases/Initializer/truncated_normal"
  attr {
    key: "T"
    value {
      type: DT_FLOAT
    }
  }
  attr {
    key: "_class"
    value {
      list {
        s: "loc:@boardConv/biases"
      }
    }
  }
  attr {
    key: "_output_shapes"
    value {
      list {
        shape {
          dim {
            size: 50
          }
        }
      }
    }
  }
  attr {
    key: "use_locking"
    value {
      b: true
    }
  }
  attr {
    key: "validate_shape"
    value {
      b: true
    }
  }
}
node {
  name: "boardConv/biases/read"
  op: "Identity"
  input: "boardConv/biases"
  attr {
    key: "T"
    value {
      type: DT_FLOAT
    }
  }
  attr {
    key: "_class"
    value {
      list {
        s: "loc:@boardConv/biases"
      }
    }
  }
  attr {
    key: "_output_shapes"
    value {
      list {
        shape {
          dim {
            size: 50
          }
        }
      }
    }
  }
}
node {
  name: "boardConv/BiasAdd"
  op: "BiasAdd"
  input: "boardConv/Conv2D"
  input: "boardConv/biases/read"
  attr {
    key: "T"
    value {
      type: DT_FLOAT
    }
  }
  attr {
    key: "_output_shapes"
    value {
      list {
        shape {
          dim {
            size: 1000
          }
          dim {
            size: 3
          }
          dim {
            size: 3
          }
          dim {
            size: 50
          }
        }
      }
    }
  }
  attr {
    key: "data_format"
    value {
      s: "NHWC"
    }
  }
}
node {
  name: "boardConv/boardConv"
  op: "Tanh"
  input: "boardConv/BiasAdd"
  attr {
    key: "T"
    value {
      type: DT_FLOAT
    }
  }
  attr {
    key: "_output_shapes"
    value {
      list {
        shape {
          dim {
            size: 1000
          }
          dim {
            size: 3
          }
          dim {
            size: 3
          }
          dim {
            size: 50
          }
        }
      }
    }
  }
}
node {
  name: "boardConv/boardConv/boardConv/activations/tag"
  op: "Const"
  attr {
    key: "_output_shapes"
    value {
      list {
        shape {
        }
      }
    }
  }
  attr {
    key: "dtype"
    value {
      type: DT_STRING
    }
  }
  attr {
    key: "value"
    value {
      tensor {
        dtype: DT_STRING
        tensor_shape {
        }
        string_val: "boardConv/boardConv/boardConv/activations"
      }
    }
  }
}
node {
  name: "boardConv/boardConv/boardConv/activations"
  op: "HistogramSummary"
  input: "boardConv/boardConv/boardConv/activations/tag"
  input: "boardConv/boardConv"
  attr {
    key: "T"
    value {
      type: DT_FLOAT
    }
  }
  attr {
    key: "_output_shapes"
    value {
      list {
        shape {
        }
      }
    }
  }
}
node {
  name: "boardConv/zero_fraction/zero"
  op: "Const"
  attr {
    key: "_output_shapes"
    value {
      list {
        shape {
        }
      }
    }
  }
  attr {
    key: "dtype"
    value {
      type: DT_FLOAT
    }
  }
  attr {
    key: "value"
    value {
      tensor {
        dtype: DT_FLOAT
        tensor_shape {
        }
        float_val: 0.0
      }
    }
  }
}
node {
  name: "boardConv/zero_fraction/Equal"
  op: "Equal"
  input: "boardConv/boardConv"
  input: "boardConv/zero_fraction/zero"
  attr {
    key: "T"
    value {
      type: DT_FLOAT
    }
  }
  attr {
    key: "_output_shapes"
    value {
      list {
        shape {
          dim {
            size: 1000
          }
          dim {
            size: 3
          }
          dim {
            size: 3
          }
          dim {
            size: 50
          }
        }
      }
    }
  }
}
node {
  name: "boardConv/zero_fraction/Cast"
  op: "Cast"
  input: "boardConv/zero_fraction/Equal"
  attr {
    key: "DstT"
    value {
      type: DT_FLOAT
    }
  }
  attr {
    key: "SrcT"
    value {
      type: DT_BOOL
    }
  }
  attr {
    key: "_output_shapes"
    value {
      list {
        shape {
          dim {
            size: 1000
          }
          dim {
            size: 3
          }
          dim {
            size: 3
          }
          dim {
            size: 50
          }
        }
      }
    }
  }
}
node {
  name: "boardConv/zero_fraction/Const"
  op: "Const"
  attr {
    key: "_output_shapes"
    value {
      list {
        shape {
          dim {
            size: 4
          }
        }
      }
    }
  }
  attr {
    key: "dtype"
    value {
      type: DT_INT32
    }
  }
  attr {
    key: "value"
    value {
      tensor {
        dtype: DT_INT32
        tensor_shape {
          dim {
            size: 4
          }
        }
        tensor_content: "\000\000\000\000\001\000\000\000\002\000\000\000\003\000\000\000"
      }
    }
  }
}
node {
  name: "boardConv/zero_fraction/Mean"
  op: "Mean"
  input: "boardConv/zero_fraction/Cast"
  input: "boardConv/zero_fraction/Const"
  attr {
    key: "T"
    value {
      type: DT_FLOAT
    }
  }
  attr {
    key: "Tidx"
    value {
      type: DT_INT32
    }
  }
  attr {
    key: "_output_shapes"
    value {
      list {
        shape {
        }
      }
    }
  }
  attr {
    key: "keep_dims"
    value {
      b: false
    }
  }
}
node {
  name: "boardConv/boardConv/boardConvsparsity/tags"
  op: "Const"
  attr {
    key: "_output_shapes"
    value {
      list {
        shape {
        }
      }
    }
  }
  attr {
    key: "dtype"
    value {
      type: DT_STRING
    }
  }
  attr {
    key: "value"
    value {
      tensor {
        dtype: DT_STRING
        tensor_shape {
        }
        string_val: "boardConv/boardConv/boardConvsparsity"
      }
    }
  }
}
node {
  name: "boardConv/boardConv/boardConvsparsity"
  op: "ScalarSummary"
  input: "boardConv/boardConv/boardConvsparsity/tags"
  input: "boardConv/zero_fraction/Mean"
  attr {
    key: "T"
    value {
      type: DT_FLOAT
    }
  }
  attr {
    key: "_output_shapes"
    value {
      list {
        shape {
        }
      }
    }
  }
}
node {
  name: "flatten/Const"
  op: "Const"
  attr {
    key: "_output_shapes"
    value {
      list {
        shape {
          dim {
            size: 6
          }
        }
      }
    }
  }
  attr {
    key: "dtype"
    value {
      type: DT_FLOAT
    }
  }
  attr {
    key: "value"
    value {
      tensor {
        dtype: DT_FLOAT
        tensor_shape {
          dim {
            size: 6
          }
        }
        tensor_content: "\000\000\250A\000\000\250A\000\000\250A\000\000\250A\000\000\200?\000\000\200?"
      }
    }
  }
}
node {
  name: "flatten/normalizedPieceCounts"
  op: "Div"
  input: "shuffle_batch:1"
  input: "flatten/Const"
  attr {
    key: "T"
    value {
      type: DT_FLOAT
    }
  }
  attr {
    key: "_output_shapes"
    value {
      list {
        shape {
          dim {
            size: 1000
          }
          dim {
            size: 6
          }
        }
      }
    }
  }
}
node {
  name: "flatten/Reshape/shape"
…
      type: DT_FLOAT
    }
  }
  attr {
    key: "_class"
    value {
      list {
        s: "loc:@fullyConnected1/weightLoss/Avg"
      }
    }
  }
  attr {
    key: "_output_shapes"
    value {
      list {
        shape {
        }
      }
    }
  }
  attr {
    key: "use_locking"
    value {
      b: true
    }
  }
  attr {
    key: "validate_shape"
    value {
      b: true
    }
  }
}
node {
  name: "save_1/RestoreV2_25/tensor_names"
  op: "Const"
  attr {
    key: "_output_shapes"
    value {
      list {
        shape {
          dim {
            size: 1
          }
        }
      }
    }
  }
  attr {
    key: "dtype"
    value {
      type: DT_STRING
    }
  }
  attr {
    key: "value"
    value {
      tensor {
        dtype: DT_STRING
        tensor_shape {
          dim {
            size: 1
          }
        }
        string_val: "fullyConnected1/weights"
      }
    }
  }
}
node {
  name: "save_1/RestoreV2_25/shape_and_slices"
  op: "Const"
  attr {
    key: "_output_shapes"
    value {
      list {
        shape {
          dim {
            size: 1
          }
        }
      }
    }
  }
  attr {
    key: "dtype"
    value {
      type: DT_STRING
    }
  }
  attr {
    key: "value"
    value {
      tensor {
        dtype: DT_STRING
        tensor_shape {
          dim {
            size: 1
          }
        }
        string_val: ""
      }
    }
  }
}
node {
  name: "save_1/RestoreV2_25"
  op: "RestoreV2"
  input: "save_1/Const"
  input: "save_1/RestoreV2_25/tensor_names"
  input: "save_1/RestoreV2_25/shape_and_slices"
  attr {
    key: "_output_shapes"
    value {
      list {
        shape {
          unknown_rank: true
        }
      }
    }
  }
  attr {
    key: "dtypes"
    value {
      list {
        type: DT_FLOAT
      }
    }
  }
}
node {
  name: "save_1/Assign_25"
  op: "Assign"
  input: "fullyConnected1/weights"
  input: "save_1/RestoreV2_25"
  attr {
    key: "T"
    value {
      type: DT_FLOAT
    }
  }
  attr {
    key: "_class"
    value {
      list {
        s: "loc:@fullyConnected1/weights"
      }
    }
  }
  attr {
    key: "_output_shapes"
    value {
      list {
        shape {
          dim {
            size: 456
          }
          dim {
            size: 100
          }
        }
      }
    }
  }
  attr {
    key: "use_locking"
    value {
      b: true
    }
  }
  attr {
    key: "validate_shape"
    value {
      b: true
    }
  }
}
node {
  name: "save_1/RestoreV2_26/tensor_names"
  op: "Const"
  attr {
    key: "_output_shapes"
    value {
      list {
        shape {
          dim {
            size: 1
          }
        }
      }
    }
  }
  attr {
    key: "dtype"
    value {
      type: DT_STRING
    }
  }
  attr {
    key: "value"
    value {
      tensor {
        dtype: DT_STRING
        tensor_shape {
          dim {
            size: 1
          }
        }
        string_val: "fullyConnected1/weights/ExponentialMovingAverage"
      }
    }
  }
}
node {
  name: "save_1/RestoreV2_26/shape_and_slices"
  op: "Const"
  attr {
    key: "_output_shapes"
    value {
      list {
        shape {
          dim {
            size: 1
          }
        }
      }
    }
  }
  attr {
    key: "dtype"
    value {
      type: DT_STRING
    }
  }
  attr {
    key: "value"
    value {
      tensor {
        dtype: DT_STRING
        tensor_shape {
          dim {
            size: 1
          }
        }
        string_val: ""
      }
    }
  }
}
node {
  name: "save_1/RestoreV2_26"
  op: "RestoreV2"
  input: "save_1/Const"
  input: "save_1/RestoreV2_26/tensor_names"
  input: "save_1/RestoreV2_26/shape_and_slices"
  attr {
    key: "_output_shapes"
    value {
      list {
        shape {
          unknown_rank: true
        }
      }
    }
  }
  attr {
    key: "dtypes"
    value {
      list {
        type: DT_FLOAT
      }
    }
  }
}
node {
  name: "save_1/Assign_26"
  op: "Assign"
  input: "fullyConnected1/weights/ExponentialMovingAverage"
  input: "save_1/RestoreV2_26"
  attr {
    key: "T"
    value {
      type: DT_FLOAT
    }
  }
  attr {
    key: "_class"
    value {
      list {
        s: "loc:@fullyConnected1/weights"
      }
    }
  }
  attr {
    key: "_output_shapes"
    value {
      list {
        shape {
          dim {
            size: 456
          }
          dim {
            size: 100
          }
        }
      }
    }
  }
  attr {
    key: "use_locking"
    value {
      b: true
    }
  }
  attr {
    key: "validate_shape"
    value {
      b: true
    }
  }
}
node {
  name: "save_1/RestoreV2_27/tensor_names"
  op: "Const"
  attr {
    key: "_output_shapes"
    value {
      list {
        shape {
          dim {
            size: 1
          }
        }
      }
    }
  }
  attr {
    key: "dtype"
    value {
      type: DT_STRING
    }
  }
  attr {
    key: "value"
    value {
      tensor {
        dtype: DT_STRING
        tensor_shape {
          dim {
            size: 1
          }
        }
        string_val: "fullyConnected2/biases"
      }
    }
  }
}
node {
  name: "save_1/RestoreV2_27/shape_and_slices"
  op: "Const"
  attr {
    key: "_output_shapes"
    value {
      list {
        shape {
          dim {
            size: 1
          }
        }
      }
    }
  }
  attr {
    key: "dtype"
    value {
      type: DT_STRING
    }
  }
  attr {
    key: "value"
    value {
      tensor {
        dtype: DT_STRING
        tensor_shape {
          dim {
            size: 1
          }
        }
        string_val: ""
      }
    }
  }
}
node {
  name: "save_1/RestoreV2_27"
  op: "RestoreV2"
  input: "save_1/Const"
  input: "save_1/RestoreV2_27/tensor_names"
  input: "save_1/RestoreV2_27/shape_and_slices"
  attr {
    key: "_output_shapes"
    value {
      list {
        shape {
          unknown_rank: true
        }
      }
    }
  }
  attr {
    key: "dtypes"
    value {
      list {
        type: DT_FLOAT
      }
    }
  }
}
node {
  name: "save_1/Assign_27"
  op: "Assign"
  input: "fullyConnected2/biases"
  input: "save_1/RestoreV2_27"
  attr {
    key: "T"
    value {
      type: DT_FLOAT
    }
  }
  attr {
    key: "_class"
    value {
      list {
        s: "loc:@fullyConnected2/biases"
      }
    }
  }
  attr {
    key: "_output_shapes"
    value {
      list {
        shape {
          dim {
            size: 50
          }
        }
      }
    }
  }
  attr {
    key: "use_locking"
    value {
      b: true
    }
  }
  attr {
    key: "validate_shape"
    value {
      b: true
    }
  }
}
node {
  name: "save_1/RestoreV2_28/tensor_names"
  op: "Const"
  attr {
    key: "_output_shapes"
    value {
      list {
        shape {
          dim {
            size: 1
          }
        }
      }
    }
  }
  attr {
    key: "dtype"
    value {
      type: DT_STRING
    }
  }
  attr {
    key: "value"
    value {
      tensor {
        dtype: DT_STRING
        tensor_shape {
          dim {
            size: 1
          }
        }
        string_val: "fullyConnected2/biases/ExponentialMovingAverage"
      }
    }
  }
}
node {
  name: "save_1/RestoreV2_28/shape_and_slices"
  op: "Const"
  attr {
    key: "_output_shapes"
    value {
      list {
        shape {
          dim {
            size: 1
          }
        }
      }
    }
  }
  attr {
    key: "dtype"
    value {
      type: DT_STRING
    }
  }
  attr {
    key: "value"
    value {
      tensor {
        dtype: DT_STRING
        tensor_shape {
          dim {
            size: 1
          }
        }
        string_val: ""
      }
    }
  }
}
node {
  name: "save_1/RestoreV2_28"
  op: "RestoreV2"
  input: "save_1/Const"
  input: "save_1/RestoreV2_28/tensor_names"
  input: "save_1/RestoreV2_28/shape_and_slices"
  attr {
    key: "_output_shapes"
    value {
      list {
        shape {
          unknown_rank: true
        }
      }
    }
  }
  attr {
    key: "dtypes"
    value {
      list {
        type: DT_FLOAT
      }
    }
  }
}
node {
  name: "save_1/Assign_28"
  op: "Assign"
  input: "fullyConnected2/biases/ExponentialMovingAverage"
  input: "save_1/RestoreV2_28"
  attr {
    key: "T"
    value {
      type: DT_FLOAT
    }
  }
  attr {
    key: "_class"
    value {
      list {
        s: "loc:@fullyConnected2/biases"
      }
    }
  }
  attr {
    key: "_output_shapes"
    value {
      list {
        shape {
          dim {
            size: 50
          }
        }
      }
    }
  }
  attr {
    key: "use_locking"
    value {
      b: true
    }
  }
  attr {
    key: "validate_shape"
    value {
      b: true
    }
  }
}
node {
  name: "save_1/RestoreV2_29/tensor_names"
  op: "Const"
  attr {
    key: "_output_shapes"
    value {
      list {
        shape {
          dim {
            size: 1
          }
        }
      }
    }
  }
  attr {
    key: "dtype"
    value {
      type: DT_STRING
    }
  }
  attr {
    key: "value"
    value {
      tensor {
        dtype: DT_STRING
        tensor_shape {
          dim {
            size: 1
          }
        }
        string_val: "fullyConnected2/weightLoss/Avg"
      }
    }
  }
}
node {
  name: "save_1/RestoreV2_29/shape_and_slices"
  op: "Const"
  attr {
    key: "_output_shapes"
    value {
      list {
        shape {
          dim {
            size: 1
          }
        }
      }
    }
  }
  attr {
    key: "dtype"
    value {
      type: DT_STRING
    }
  }
  attr {
    key: "value"
    value {
      tensor {
        dtype: DT_STRING
        tensor_shape {
          dim {
            size: 1
          }
        }
        string_val: ""
      }
    }
  }
}
node {
  name: "save_1/RestoreV2_29"
  op: "RestoreV2"
  input: "save_1/Const"
  input: "save_1/RestoreV2_29/tensor_names"
  input: "save_1/RestoreV2_29/shape_and_slices"
  attr {
    key: "_output_shapes"
    value {
      list {
        shape {
          unknown_rank: true
        }
      }
    }
  }
  attr {
    key: "dtypes"
    value {
      list {
        type: DT_FLOAT
      }
    }
  }
}
node {
  name: "save_1/Assign_29"
  op: "Assign"
  input: "fullyConnected2/weightLoss/Avg"
  input: "save_1/RestoreV2_29"
  attr {
    key: "T"
    value {
      type: DT_FLOAT
    }
  }
  attr {
    key: "_class"
    value {
      list {
        s: "loc:@fullyConnected2/weightLoss/Avg"
      }
    }
  }
  attr {
    key: "_output_shapes"
    value {
      list {
        shape {
        }
      }
    }
  }
  attr {
    key: "use_locking"
    value {
      b: true
    }
  }
  attr {
    key: "validate_shape"
    value {
      b: true
    }
  }
}
node {
  name: "save_1/RestoreV2_30/tensor_names"
  op: "Const"
  attr {
    key: "_output_shapes"
    value {
      list {
        shape {
          dim {
            size: 1
          }
        }
      }
    }
  }
  attr {
    key: "dtype"
    value {
      type: DT_STRING
    }
  }
  attr {
    key: "value"
    value {
      tensor {
        dtype: DT_STRING
        tensor_shape {
          dim {
            size: 1
          }
        }
        string_val: "fullyConnected2/weightLoss/Avg/biased"
      }
    }
  }
}
node {
  name: "save_1/RestoreV2_30/shape_and_slices"
  op: "Const"
  attr {
    key: "_output_shapes"
    value {
      list {
        shape {
          dim {
            size: 1
          }
        }
      }
    }
  }
  attr {
    key: "dtype"
    value {
      type: DT_STRING
    }
  }
  attr {
    key: "value"
    value {
      tensor {
        dtype: DT_STRING
        tensor_shape {
          dim {
            size: 1
          }
        }
        string_val: ""
      }
    }
  }
}
node {
  name: "save_1/RestoreV2_30"
  op: "RestoreV2"
  input: "save_1/Const"
  input: "save_1/RestoreV2_30/tensor_names"
  input: "save_1/RestoreV2_30/shape_and_slices"
  attr {
    key: "_output_shapes"
    value {
      list {
        shape {
          unknown_rank: true
        }
      }
    }
  }
  attr {
    key: "dtypes"
    value {
      list {
        type: DT_FLOAT
      }
    }
  }
}
node {
  name: "save_1/Assign_30"
  op: "Assign"
  input: "fullyConnected2/weightLoss/Avg/biased"
  input: "save_1/RestoreV2_30"
  attr {
    key: "T"
    value {
      type: DT_FLOAT
    }
  }
  attr {
    key: "_class"
    value {
      list {
        s: "loc:@fullyConnected2/weightLoss/Avg"
      }
    }
  }
  attr {
    key: "_output_shapes"
    value {
      list {
        shape {
        }
      }
    }
  }
  attr {
    key: "use_locking"
    value {
      b: true
    }
  }
  attr {
    key: "validate_shape"
    value {
      b: true
    }
  }
}
node {
  name: "save_1/RestoreV2_31/tensor_names"
  op: "Const"
  attr {
    key: "_output_shapes"
    value {
      list {
        shape {
          dim {
            size: 1
          }
        }
      }
    }
  }
  attr {
    key: "dtype"
    value {
      type: DT_STRING
    }
  }
  attr {
    key: "value"
    value {
      tensor {
        dtype: DT_STRING
        tensor_shape {
          dim {
            size: 1
          }
        }
        string_val: "fullyConnected2/weightLoss/Avg/local_step"
      }
    }
  }
}
node {
  name: "save_1/RestoreV2_31/shape_and_slices"
  op: "Const"
  attr {
    key: "_output_shapes"
    value {
      list {
        shape {
          dim {
            size: 1
          }
        }
      }
    }
  }
  attr {
    key: "dtype"
    value {
      type: DT_STRING
    }
  }
  attr {
    key: "value"
    value {
      tensor {
        dtype: DT_STRING
        tensor_shape {
          dim {
            size: 1
          }
        }
        string_val: ""
      }
    }
  }
}
node {
  name: "save_1/RestoreV2_31"
  op: "RestoreV2"
  input: "save_1/Const"
  input: "save_1/RestoreV2_31/tensor_names"
  input: "save_1/RestoreV2_31/shape_and_slices"
  attr {
    key: "_output_shapes"
    value {
      list {
        shape {
          unknown_rank: true
        }
      }
    }
  }
  attr {
    key: "dtypes"
    value {
      list {
        type: DT_FLOAT
      }
    }
  }
}
node {
  name: "save_1/Assign_31"
  op: "Assign"
  input: "fullyConnected2/weightLoss/Avg/local_step"
  input: "save_1/RestoreV2_31"
  attr {
    key: "T"
    value {
      type: DT_FLOAT
    }
  }
  attr {
    key: "_class"
    value {
      list {
        s: "loc:@fullyConnected2/weightLoss/Avg"
      }
    }
  }
  attr {
    key: "_output_shapes"
    value {
      list {
        shape {
        }
      }
    }
  }
  attr {
    key: "use_locking"
    value {
      b: true
    }
  }
  attr {
    key: "validate_shape"
    value {
      b: true
    }
  }
}
node {
  name: "save_1/RestoreV2_32/tensor_names"
  op: "Const"
  attr {
    key: "_output_shapes"
    value {
      list {
        shape {
          dim {
            size: 1
          }
        }
      }
    }
  }
  attr {
    key: "dtype"
    value {
      type: DT_STRING
    }
  }
  attr {
    key: "value"
    value {
      tensor {
        dtype: DT_STRING
        tensor_shape {
          dim {
            size: 1
          }
        }
        string_val: "fullyConnected2/weights"
      }
    }
  }
}
node {
  name: "save_1/RestoreV2_32/shape_and_slices"
  op: "Const"
  attr {
    key: "_output_shapes"
    value {
      list {
        shape {
          dim {
            size: 1
          }
        }
      }
    }
  }
  attr {
    key: "dtype"
    value {
      type: DT_STRING
    }
  }
  attr {
    key: "value"
    value {
      tensor {
        dtype: DT_STRING
        tensor_shape {
          dim {
            size: 1
          }
        }
        string_val: ""
      }
    }
  }
}
node {
  name: "save_1/RestoreV2_32"
  op: "RestoreV2"
  input: "save_1/Const"
  input: "save_1/RestoreV2_32/tensor_names"
  input: "save_1/RestoreV2_32/shape_and_slices"
  attr {
    key: "_output_shapes"
    value {
      list {
        shape {
          unknown_rank: true
        }
      }
    }
  }
  attr {
    key: "dtypes"
    value {
      list {
        type: DT_FLOAT
      }
    }
  }
}
node {
  name: "save_1/Assign_32"
  op: "Assign"
  input: "fullyConnected2/weights"
  input: "save_1/RestoreV2_32"
  attr {
    key: "T"
    value {
      type: DT_FLOAT
    }
  }
  attr {
    key: "_class"
    value {
      list {
        s: "loc:@fullyConnected2/weights"
      }
    }
  }
  attr {
    key: "_output_shapes"
    value {
      list {
        shape {
          dim {
            size: 100
          }
          dim {
            size: 50
          }
        }
      }
    }
  }
  attr {
    key: "use_locking"
    value {
      b: true
    }
  }
  attr {
    key: "validate_shape"
    value {
      b: true
    }
  }
}
node {
  name: "save_1/RestoreV2_33/tensor_names"
  op: "Const"
  attr {
    key: "_output_shapes"
    value {
      list {
        shape {
          dim {
            size: 1
          }
        }
      }
    }
  }
  attr {
    key: "dtype"
    value {
      type: DT_STRING
    }
  }
  attr {
    key: "value"
    value {
      tensor {
        dtype: DT_STRING
        tensor_shape {
          dim {
            size: 1
          }
        }
        string_val: "fullyConnected2/weights/ExponentialMovingAverage"
      }
    }
  }
}
node {
  name: "save_1/RestoreV2_33/shape_and_slices"
  op: "Const"
  attr {
    key: "_output_shapes"
    value {
      list {
        shape {
          dim {
            size: 1
          }
        }
      }
    }
  }
  attr {
    key: "dtype"
    value {
      type: DT_STRING
    }
  }
  attr {
    key: "value"
    value {
      tensor {
        dtype: DT_STRING
        tensor_shape {
          dim {
            size: 1
          }
        }
        string_val: ""
      }
    }
  }
}
node {
  name: "save_1/RestoreV2_33"
  op: "RestoreV2"
  input: "save_1/Const"
  input: "save_1/RestoreV2_33/tensor_names"
  input: "save_1/RestoreV2_33/shape_and_slices"
  attr {
    key: "_output_shapes"
    value {
      list {
        shape {
          unknown_rank: true
        }
      }
    }
  }
  attr {
    key: "dtypes"
    value {
      list {
        type: DT_FLOAT
      }
    }
  }
}
node {
  name: "save_1/Assign_33"
  op: "Assign"
  input: "fullyConnected2/weights/ExponentialMovingAverage"
  input: "save_1/RestoreV2_33"
  attr {
    key: "T"
    value {
      type: DT_FLOAT
    }
  }
  attr {
    key: "_class"
    value {
      list {
        s: "loc:@fullyConnected2/weights"
      }
    }
  }
  attr {
    key: "_output_shapes"
    value {
      list {
        shape {
          dim {
            size: 100
          }
          dim {
            size: 50
          }
        }
      }
    }
  }
  attr {
    key: "use_locking"
    value {
      b: true
    }
  }
  attr {
    key: "validate_shape"
    value {
      b: true
    }
  }
}
node {
  name: "save_1/RestoreV2_34/tensor_names"
  op: "Const"
  attr {
    key: "_output_shapes"
    value {
      list {
        shape {
          dim {
            size: 1
          }
        }
      }
    }
  }
  attr {
    key: "dtype"
    value {
      type: DT_STRING
    }
  }
  attr {
    key: "value"
    value {
      tensor {
        dtype: DT_STRING
        tensor_shape {
          dim {
            size: 1
          }
        }
        string_val: "global_step"
      }
    }
  }
}
node {
  name: "save_1/RestoreV2_34/shape_and_slices"
  op: "Const"
  attr {
    key: "_output_shapes"
    value {
      list {
        shape {
          dim {
            size: 1
          }
        }
      }
    }
  }
  attr {
    key: "dtype"
    value {
      type: DT_STRING
    }
  }
  attr {
    key: "value"
    value {
      tensor {
        dtype: DT_STRING
        tensor_shape {
          dim {
            size: 1
          }
        }
        string_val: ""
      }
    }
  }
}
node {
  name: "save_1/RestoreV2_34"
  op: "RestoreV2"
  input: "save_1/Const"
  input: "save_1/RestoreV2_34/tensor_names"
  input: "save_1/RestoreV2_34/shape_and_slices"
  attr {
    key: "_output_shapes"
    value {
      list {
        shape {
          unknown_rank: true
        }
      }
    }
  }
  attr {
    key: "dtypes"
    value {
      list {
        type: DT_INT64
      }
    }
  }
}
node {
  name: "save_1/Assign_34"
  op: "Assign"
  input: "global_step"
  input: "save_1/RestoreV2_34"
  attr {
    key: "T"
    value {
      type: DT_INT64
    }
  }
  attr {
    key: "_class"
    value {
      list {
        s: "loc:@global_step"
      }
    }
  }
  attr {
    key: "_output_shapes"
    value {
      list {
        shape {
        }
      }
    }
  }
  attr {
    key: "use_locking"
    value {
      b: true
    }
  }
  attr {
    key: "validate_shape"
    value {
      b: true
    }
  }
}
node {
  name: "save_1/RestoreV2_35/tensor_names"
  op: "Const"
  attr {
    key: "_output_shapes"
    value {
      list {
        shape {
          dim {
            size: 1
          }
        }
      }
    }
  }
  attr {
    key: "dtype"
    value {
      type: DT_STRING
    }
  }
  attr {
    key: "value"
    value {
      tensor {
        dtype: DT_STRING
        tensor_shape {
          dim {
            size: 1
          }
        }
        string_val: "score/bias"
      }
    }
  }
}
node {
  name: "save_1/RestoreV2_35/shape_and_slices"
  op: "Const"
  attr {
    key: "_output_shapes"
    value {
      list {
        shape {
          dim {
            size: 1
          }
        }
      }
    }
  }
  attr {
    key: "dtype"
    value {
      type: DT_STRING
    }
  }
  attr {
    key: "value"
    value {
      tensor {
        dtype: DT_STRING
        tensor_shape {
          dim {
            size: 1
          }
        }
        string_val: ""
      }
    }
  }
}
node {
  name: "save_1/RestoreV2_35"
  op: "RestoreV2"
  input: "save_1/Const"
  input: "save_1/RestoreV2_35/tensor_names"
  input: "save_1/RestoreV2_35/shape_and_slices"
  attr {
    key: "_output_shapes"
    value {
      list {
        shape {
          unknown_rank: true
        }
      }
    }
  }
  attr {
    key: "dtypes"
    value {
      list {
        type: DT_FLOAT
      }
    }
  }
}
node {
  name: "save_1/Assign_35"
  op: "Assign"
  input: "score/bias"
  input: "save_1/RestoreV2_35"
  attr {
    key: "T"
    value {
      type: DT_FLOAT
    }
  }
  attr {
    key: "_class"
    value {
      list {
        s: "loc:@score/bias"
      }
    }
  }
  attr {
    key: "_output_shapes"
    value {
      list {
        shape {
          dim {
            size: 1
          }
        }
      }
    }
  }
  attr {
    key: "use_locking"
    value {
      b: true
    }
  }
  attr {
    key: "validate_shape"
    value {
      b: true
    }
  }
}
node {
  name: "save_1/RestoreV2_36/tensor_names"
  op: "Const"
  attr {
    key: "_output_shapes"
    value {
      list {
        shape {
          dim {
            size: 1
          }
        }
      }
    }
  }
  attr {
    key: "dtype"
    value {
      type: DT_STRING
    }
  }
  attr {
    key: "value"
    value {
      tensor {
        dtype: DT_STRING
        tensor_shape {
          dim {
            size: 1
          }
        }
        string_val: "score/bias/ExponentialMovingAverage"
      }
    }
  }
}
node {
  name: "save_1/RestoreV2_36/shape_and_slices"
  op: "Const"
  attr {
    key: "_output_shapes"
    value {
      list {
        shape {
          dim {
            size: 1
          }
        }
      }
    }
  }
  attr {
    key: "dtype"
    value {
      type: DT_STRING
    }
  }
  attr {
    key: "value"
    value {
      tensor {
        dtype: DT_STRING
        tensor_shape {
          dim {
            size: 1
          }
        }
        string_val: ""
      }
    }
  }
}
node {
  name: "save_1/RestoreV2_36"
  op: "RestoreV2"
  input: "save_1/Const"
  input: "save_1/RestoreV2_36/tensor_names"
  input: "save_1/RestoreV2_36/shape_and_slices"
  attr {
    key: "_output_shapes"
    value {
      list {
        shape {
          unknown_rank: true
        }
      }
    }
  }
  attr {
    key: "dtypes"
    value {
      list {
        type: DT_FLOAT
      }
    }
  }
}
node {
  name: "save_1/Assign_36"
  op: "Assign"
  input: "score/bias/ExponentialMovingAverage"
  input: "save_1/RestoreV2_36"
  attr {
    key: "T"
    value {
      type: DT_FLOAT
    }
  }
  attr {
    key: "_class"
    value {
      list {
        s: "loc:@score/bias"
      }
    }
  }
  attr {
    key: "_output_shapes"
    value {
      list {
        shape {
          dim {
            size: 1
          }
        }
      }
    }
  }
  attr {
    key: "use_locking"
    value {
      b: true
    }
  }
  attr {
    key: "validate_shape"
    value {
      b: true
    }
  }
}
node {
  name: "save_1/RestoreV2_37/tensor_names"
  op: "Const"
  attr {
    key: "_output_shapes"
    value {
      list {
        shape {
          dim {
            size: 1
          }
        }
      }
    }
  }
  attr {
    key: "dtype"
    value {
      type: DT_STRING
    }
  }
  attr {
    key: "value"
    value {
      tensor {
        dtype: DT_STRING
        tensor_shape {
          dim {
            size: 1
          }
        }
        string_val: "score/weightLoss/Avg"
      }
    }
  }
}
node {
  name: "save_1/RestoreV2_37/shape_and_slices"
  op: "Const"
  attr {
    key: "_output_shapes"
    value {
      list {
        shape {
          dim {
            size: 1
          }
        }
      }
    }
  }
  attr {
    key: "dtype"
    value {
      type: DT_STRING
    }
  }
  attr {
    key: "value"
    value {
      tensor {
        dtype: DT_STRING
        tensor_shape {
          dim {
            size: 1
          }
        }
        string_val: ""
      }
    }
  }
}
node {
  name: "save_1/RestoreV2_37"
  op: "RestoreV2"
  input: "save_1/Const"
  input: "save_1/RestoreV2_37/tensor_names"
  input: "save_1/RestoreV2_37/shape_and_slices"
  attr {
    key: "_output_shapes"
    value {
      list {
        shape {
          unknown_rank: true
        }
      }
    }
  }
  attr {
    key: "dtypes"
    value {
      list {
        type: DT_FLOAT
      }
    }
  }
}
node {
  name: "save_1/Assign_37"
  op: "Assign"
  input: "score/weightLoss/Avg"
  input: "save_1/RestoreV2_37"
  attr {
    key: "T"
    value {
      type: DT_FLOAT
    }
  }
  attr {
    key: "_class"
    value {
      list {
        s: "loc:@score/weightLoss/Avg"
      }
    }
  }
  attr {
    key: "_output_shapes"
    value {
      list {
        shape {
        }
      }
    }
  }
  attr {
    key: "use_locking"
    value {
      b: true
    }
  }
  attr {
    key: "validate_shape"
    value {
      b: true
    }
  }
}
node {
  name: "save_1/RestoreV2_38/tensor_names"
  op: "Const"
  attr {
    key: "_output_shapes"
    value {
      list {
        shape {
          dim {
            size: 1
          }
        }
      }
    }
  }
  attr {
    key: "dtype"
    value {
      type: DT_STRING
    }
  }
  attr {
    key: "value"
    value {
      tensor {
        dtype: DT_STRING
        tensor_shape {
          dim {
            size: 1
          }
        }
        string_val: "score/weightLoss/Avg/biased"
      }
    }
  }
}
node {
  name: "save_1/RestoreV2_38/shape_and_slices"
  op: "Const"
  attr {
    key: "_output_shapes"
    value {
      list {
        shape {
          dim {
            size: 1
          }
        }
      }
    }
  }
  attr {
    key: "dtype"
    value {
      type: DT_STRING
    }
  }
  attr {
    key: "value"
    value {
      tensor {
        dtype: DT_STRING
        tensor_shape {
          dim {
            size: 1
          }
        }
        string_val: ""
      }
    }
  }
}
node {
  name: "save_1/RestoreV2_38"
  op: "RestoreV2"
  input: "save_1/Const"
  input: "save_1/RestoreV2_38/tensor_names"
  input: "save_1/RestoreV2_38/shape_and_slices"
  attr {
    key: "_output_shapes"
    value {
      list {
        shape {
          unknown_rank: true
        }
      }
    }
  }
  attr {
    key: "dtypes"
    value {
      list {
        type: DT_FLOAT
      }
    }
  }
}
node {
  name: "save_1/Assign_38"
  op: "Assign"
  input: "score/weightLoss/Avg/biased"
  input: "save_1/RestoreV2_38"
  attr {
    key: "T"
    value {
      type: DT_FLOAT
    }
  }
  attr {
    key: "_class"
    value {
      list {
        s: "loc:@score/weightLoss/Avg"
      }
    }
  }
  attr {
    key: "_output_shapes"
    value {
      list {
        shape {
        }
      }
    }
  }
  attr {
    key: "use_locking"
    value {
      b: true
    }
  }
  attr {
    key: "validate_shape"
    value {
      b: true
    }
  }
}
node {
  name: "save_1/RestoreV2_39/tensor_names"
  op: "Const"
  attr {
    key: "_output_shapes"
    value {
      list {
        shape {
          dim {
            size: 1
          }
        }
      }
    }
  }
  attr {
    key: "dtype"
    value {
      type: DT_STRING
    }
  }
  attr {
    key: "value"
    value {
      tensor {
        dtype: DT_STRING
        tensor_shape {
          dim {
            size: 1
          }
        }
        string_val: "score/weightLoss/Avg/local_step"
      }
    }
  }
}
node {
  name: "save_1/RestoreV2_39/shape_and_slices"
  op: "Const"
  attr {
    key: "_output_shapes"
    value {
      list {
        shape {
          dim {
            size: 1
          }
        }
      }
    }
  }
  attr {
    key: "dtype"
    value {
      type: DT_STRING
    }
  }
  attr {
    key: "value"
    value {
      tensor {
        dtype: DT_STRING
        tensor_shape {
          dim {
            size: 1
          }
        }
        string_val: ""
      }
    }
  }
}
node {
  name: "save_1/RestoreV2_39"
  op: "RestoreV2"
  input: "save_1/Const"
  input: "save_1/RestoreV2_39/tensor_names"
  input: "save_1/RestoreV2_39/shape_and_slices"
  attr {
    key: "_output_shapes"
    value {
      list {
        shape {
          unknown_rank: true
        }
      }
    }
  }
  attr {
    key: "dtypes"
    value {
      list {
        type: DT_FLOAT
      }
    }
  }
}
node {
  name: "save_1/Assign_39"
  op: "Assign"
  input: "score/weightLoss/Avg/local_step"
  input: "save_1/RestoreV2_39"
  attr {
    key: "T"
    value {
      type: DT_FLOAT
    }
  }
  attr {
    key: "_class"
    value {
      list {
        s: "loc:@score/weightLoss/Avg"
      }
    }
  }
  attr {
    key: "_output_shapes"
    value {
      list {
        shape {
        }
      }
    }
  }
  attr {
    key: "use_locking"
    value {
      b: true
    }
  }
  attr {
    key: "validate_shape"
    value {
      b: true
    }
  }
}
node {
  name: "save_1/RestoreV2_40/tensor_names"
  op: "Const"
  attr {
    key: "_output_shapes"
    value {
      list {
        shape {
          dim {
            size: 1
          }
        }
      }
    }
  }
  attr {
    key: "dtype"
    value {
      type: DT_STRING
    }
  }
  attr {
    key: "value"
    value {
      tensor {
        dtype: DT_STRING
        tensor_shape {
          dim {
            size: 1
          }
        }
        string_val: "score/weights"
      }
    }
  }
}
node {
  name: "save_1/RestoreV2_40/shape_and_slices"
  op: "Const"
  attr {
    key: "_output_shapes"
    value {
      list {
        shape {
          dim {
            size: 1
          }
        }
      }
    }
  }
  attr {
    key: "dtype"
    value {
      type: DT_STRING
    }
  }
  attr {
    key: "value"
    value {
      tensor {
        dtype: DT_STRING
        tensor_shape {
          dim {
            size: 1
          }
        }
        string_val: ""
      }
    }
  }
}
node {
  name: "save_1/RestoreV2_40"
  op: "RestoreV2"
  input: "save_1/Const"
  input: "save_1/RestoreV2_40/tensor_names"
  input: "save_1/RestoreV2_40/shape_and_slices"
  attr {
    key: "_output_shapes"
    value {
      list {
        shape {
          unknown_rank: true
        }
      }
    }
  }
  attr {
    key: "dtypes"
    value {
      list {
        type: DT_FLOAT
      }
    }
  }
}
node {
  name: "save_1/Assign_40"
  op: "Assign"
  input: "score/weights"
  input: "save_1/RestoreV2_40"
  attr {
    key: "T"
    value {
      type: DT_FLOAT
    }
  }
  attr {
    key: "_class"
    value {
      list {
        s: "loc:@score/weights"
      }
    }
  }
  attr {
    key: "_output_shapes"
    value {
      list {
        shape {
          dim {
            size: 50
          }
          dim {
            size: 1
          }
        }
      }
    }
  }
  attr {
    key: "use_locking"
    value {
      b: true
    }
  }
  attr {
    key: "validate_shape"
    value {
      b: true
    }
  }
}
node {
  name: "save_1/RestoreV2_41/tensor_names"
  op: "Const"
  attr {
    key: "_output_shapes"
    value {
      list {
        shape {
          dim {
            size: 1
          }
        }
      }
    }
  }
  attr {
    key: "dtype"
    value {
      type: DT_STRING
    }
  }
  attr {
    key: "value"
    value {
      tensor {
        dtype: DT_STRING
        tensor_shape {
          dim {
            size: 1
          }
        }
        string_val: "score/weights/ExponentialMovingAverage"
      }
    }
  }
}
node {
  name: "save_1/RestoreV2_41/shape_and_slices"
  op: "Const"
  attr {
    key: "_output_shapes"
    value {
      list {
        shape {
          dim {
            size: 1
          }
        }
      }
    }
  }
  attr {
    key: "dtype"
    value {
      type: DT_STRING
    }
  }
  attr {
    key: "value"
    value {
      tensor {
        dtype: DT_STRING
        tensor_shape {
          dim {
            size: 1
          }
        }
        string_val: ""
      }
    }
  }
}
node {
  name: "save_1/RestoreV2_41"
  op: "RestoreV2"
  input: "save_1/Const"
  input: "save_1/RestoreV2_41/tensor_names"
  input: "save_1/RestoreV2_41/shape_and_slices"
  attr {
    key: "_output_shapes"
    value {
      list {
        shape {
          unknown_rank: true
        }
      }
    }
  }
  attr {
    key: "dtypes"
    value {
      list {
        type: DT_FLOAT
      }
    }
  }
}
node {
  name: "save_1/Assign_41"
  op: "Assign"
  input: "score/weights/ExponentialMovingAverage"
  input: "save_1/RestoreV2_41"
  attr {
    key: "T"
    value {
      type: DT_FLOAT
    }
  }
  attr {
    key: "_class"
    value {
      list {
        s: "loc:@score/weights"
      }
    }
  }
  attr {
    key: "_output_shapes"
    value {
      list {
        shape {
          dim {
            size: 50
          }
          dim {
            size: 1
          }
        }
      }
    }
  }
  attr {
    key: "use_locking"
    value {
      b: true
    }
  }
  attr {
    key: "validate_shape"
    value {
      b: true
    }
  }
}
node {
  name: "save_1/RestoreV2_42/tensor_names"
  op: "Const"
  attr {
    key: "_output_shapes"
    value {
      list {
        shape {
          dim {
            size: 1
          }
        }
      }
    }
  }
  attr {
    key: "dtype"
    value {
      type: DT_STRING
    }
  }
  attr {
    key: "value"
    value {
      tensor {
        dtype: DT_STRING
        tensor_shape {
          dim {
            size: 1
          }
        }
        string_val: "stackConv/biases"
      }
    }
  }
}
node {
  name: "save_1/RestoreV2_42/shape_and_slices"
  op: "Const"
  attr {
    key: "_output_shapes"
    value {
      list {
        shape {
          dim {
            size: 1
          }
        }
      }
    }
  }
  attr {
    key: "dtype"
    value {
      type: DT_STRING
    }
  }
  attr {
    key: "value"
    value {
      tensor {
        dtype: DT_STRING
        tensor_shape {
          dim {
            size: 1
          }
        }
        string_val: ""
      }
    }
  }
}
node {
  name: "save_1/RestoreV2_42"
  op: "RestoreV2"
  input: "save_1/Const"
  input: "save_1/RestoreV2_42/tensor_names"
  input: "save_1/RestoreV2_42/shape_and_slices"
  attr {
    key: "_output_shapes"
    value {
      list {
        shape {
          unknown_rank: true
        }
      }
    }
  }
  attr {
    key: "dtypes"
    value {
      list {
        type: DT_FLOAT
      }
    }
  }
}
node {
  name: "save_1/Assign_42"
  op: "Assign"
  input: "stackConv/biases"
  input: "save_1/RestoreV2_42"
  attr {
    key: "T"
    value {
      type: DT_FLOAT
    }
  }
  attr {
    key: "_class"
    value {
      list {
        s: "loc:@stackConv/biases"
      }
    }
  }
  attr {
    key: "_output_shapes"
    value {
      list {
        shape {
          dim {
            size: 50
          }
        }
      }
    }
  }
  attr {
    key: "use_locking"
    value {
      b: true
    }
  }
  attr {
    key: "validate_shape"
    value {
      b: true
    }
  }
}
node {
  name: "save_1/RestoreV2_43/tensor_names"
  op: "Const"
  attr {
    key: "_output_shapes"
    value {
      list {
        shape {
          dim {
            size: 1
          }
        }
      }
    }
  }
  attr {
    key: "dtype"
    value {
      type: DT_STRING
    }
  }
  attr {
    key: "value"
    value {
      tensor {
        dtype: DT_STRING
        tensor_shape {
          dim {
            size: 1
          }
        }
        string_val: "stackConv/biases/ExponentialMovingAverage"
      }
    }
  }
}
node {
  name: "save_1/RestoreV2_43/shape_and_slices"
  op: "Const"
  attr {
    key: "_output_shapes"
    value {
      list {
        shape {
          dim {
            size: 1
          }
        }
      }
    }
  }
  attr {
    key: "dtype"
    value {
      type: DT_STRING
    }
  }
  attr {
    key: "value"
    value {
      tensor {
        dtype: DT_STRING
        tensor_shape {
          dim {
            size: 1
          }
        }
        string_val: ""
      }
    }
  }
}
node {
  name: "save_1/RestoreV2_43"
  op: "RestoreV2"
  input: "save_1/Const"
  input: "save_1/RestoreV2_43/tensor_names"
  input: "save_1/RestoreV2_43/shape_and_slices"
  attr {
    key: "_output_shapes"
    value {
      list {
        shape {
          unknown_rank: true
        }
      }
    }
  }
  attr {
    key: "dtypes"
    value {
      list {
        type: DT_FLOAT
      }
    }
  }
}
node {
  name: "save_1/Assign_43"
  op: "Assign"
  input: "stackConv/biases/ExponentialMovingAverage"
  input: "save_1/RestoreV2_43"
  attr {
    key: "T"
    value {
      type: DT_FLOAT
    }
  }
  attr {
    key: "_class"
    value {
      list {
        s: "loc:@stackConv/biases"
      }
    }
  }
  attr {
    key: "_output_shapes"
    value {
      list {
        shape {
          dim {
            size: 50
          }
        }
      }
    }
  }
  attr {
    key: "use_locking"
    value {
      b: true
    }
  }
  attr {
    key: "validate_shape"
    value {
      b: true
    }
  }
}
node {
  name: "save_1/RestoreV2_44/tensor_names"
  op: "Const"
  attr {
    key: "_output_shapes"
    value {
      list {
        shape {
          dim {
            size: 1
          }
        }
      }
    }
  }
  attr {
    key: "dtype"
    value {
      type: DT_STRING
    }
  }
  attr {
    key: "value"
    value {
      tensor {
        dtype: DT_STRING
        tensor_shape {
          dim {
            size: 1
          }
        }
        string_val: "stackConv/weightLoss/Avg"
      }
    }
  }
}
node {
  name: "save_1/RestoreV2_44/shape_and_slices"
  op: "Const"
  attr {
    key: "_output_shapes"
    value {
      list {
        shape {
          dim {
            size: 1
          }
        }
      }
    }
  }
  attr {
    key: "dtype"
    value {
      type: DT_STRING
    }
  }
  attr {
    key: "value"
    value {
      tensor {
        dtype: DT_STRING
        tensor_shape {
          dim {
            size: 1
          }
        }
        string_val: ""
      }
    }
  }
}
node {
  name: "save_1/RestoreV2_44"
  op: "RestoreV2"
  input: "save_1/Const"
  input: "save_1/RestoreV2_44/tensor_names"
  input: "save_1/RestoreV2_44/shape_and_slices"
  attr {
    key: "_output_shapes"
    value {
      list {
        shape {
          unknown_rank: true
        }
      }
    }
  }
  attr {
    key: "dtypes"
    value {
      list {
        type: DT_FLOAT
      }
    }
  }
}
node {
  name: "save_1/Assign_44"
  op: "Assign"
  input: "stackConv/weightLoss/Avg"
  input: "save_1/RestoreV2_44"
  attr {
    key: "T"
    value {
      type: DT_FLOAT
    }
  }
  attr {
    key: "_class"
    value {
      list {
        s: "loc:@stackConv/weightLoss/Avg"
      }
    }
  }
  attr {
    key: "_output_shapes"
    value {
      list {
        shape {
        }
      }
    }
  }
  attr {
    key: "use_locking"
    value {
      b: true
    }
  }
  attr {
    key: "validate_shape"
    value {
      b: true
    }
  }
}
node {
  name: "save_1/RestoreV2_45/tensor_names"
  op: "Const"
  attr {
    key: "_output_shapes"
    value {
      list {
        shape {
          dim {
            size: 1
          }
        }
      }
    }
  }
  attr {
    key: "dtype"
    value {
      type: DT_STRING
    }
  }
  attr {
    key: "value"
    value {
      tensor {
        dtype: DT_STRING
        tensor_shape {
          dim {
            size: 1
          }
        }
        string_val: "stackConv/weightLoss/Avg/biased"
      }
    }
  }
}
node {
  name: "save_1/RestoreV2_45/shape_and_slices"
  op: "Const"
  attr {
    key: "_output_shapes"
    value {
      list {
        shape {
          dim {
            size: 1
          }
        }
      }
    }
  }
  attr {
    key: "dtype"
    value {
      type: DT_STRING
    }
  }
  attr {
    key: "value"
    value {
      tensor {
        dtype: DT_STRING
        tensor_shape {
          dim {
            size: 1
          }
        }
        string_val: ""
      }
    }
  }
}
node {
  name: "save_1/RestoreV2_45"
  op: "RestoreV2"
  input: "save_1/Const"
  input: "save_1/RestoreV2_45/tensor_names"
  input: "save_1/RestoreV2_45/shape_and_slices"
  attr {
    key: "_output_shapes"
    value {
      list {
        shape {
          unknown_rank: true
        }
      }
    }
  }
  attr {
    key: "dtypes"
    value {
      list {
        type: DT_FLOAT
      }
    }
  }
}
node {
  name: "save_1/Assign_45"
  op: "Assign"
  input: "stackConv/weightLoss/Avg/biased"
  input: "save_1/RestoreV2_45"
  attr {
    key: "T"
    value {
      type: DT_FLOAT
    }
  }
  attr {
    key: "_class"
    value {
      list {
        s: "loc:@stackConv/weightLoss/Avg"
      }
    }
  }
  attr {
    key: "_output_shapes"
    value {
      list {
        shape {
        }
      }
    }
  }
  attr {
    key: "use_locking"
    value {
      b: true
    }
  }
  attr {
    key: "validate_shape"
    value {
      b: true
    }
  }
}
node {
  name: "save_1/RestoreV2_46/tensor_names"
  op: "Const"
  attr {
    key: "_output_shapes"
    value {
      list {
        shape {
          dim {
            size: 1
          }
        }
      }
    }
  }
  attr {
    key: "dtype"
    value {
      type: DT_STRING
    }
  }
  attr {
    key: "value"
    value {
      tensor {
        dtype: DT_STRING
        tensor_shape {
          dim {
            size: 1
          }
        }
        string_val: "stackConv/weightLoss/Avg/local_step"
      }
    }
  }
}
node {
  name: "save_1/RestoreV2_46/shape_and_slices"
  op: "Const"
  attr {
    key: "_output_shapes"
    value {
      list {
        shape {
          dim {
            size: 1
          }
        }
      }
    }
  }
  attr {
    key: "dtype"
    value {
      type: DT_STRING
    }
  }
  attr {
    key: "value"
    value {
      tensor {
        dtype: DT_STRING
        tensor_shape {
          dim {
            size: 1
          }
        }
        string_val: ""
      }
    }
  }
}
node {
  name: "save_1/RestoreV2_46"
  op: "RestoreV2"
  input: "save_1/Const"
  input: "save_1/RestoreV2_46/tensor_names"
  input: "save_1/RestoreV2_46/shape_and_slices"
  attr {
    key: "_output_shapes"
    value {
      list {
        shape {
          unknown_rank: true
        }
      }
    }
  }
  attr {
    key: "dtypes"
    value {
      list {
        type: DT_FLOAT
      }
    }
  }
}
node {
  name: "save_1/Assign_46"
  op: "Assign"
  input: "stackConv/weightLoss/Avg/local_step"
  input: "save_1/RestoreV2_46"
  attr {
    key: "T"
    value {
      type: DT_FLOAT
    }
  }
  attr {
    key: "_class"
    value {
      list {
        s: "loc:@stackConv/weightLoss/Avg"
      }
    }
  }
  attr {
    key: "_output_shapes"
    value {
      list {
        shape {
        }
      }
    }
  }
  attr {
    key: "use_locking"
    value {
      b: true
    }
  }
  attr {
    key: "validate_shape"
    value {
      b: true
    }
  }
}
node {
  name: "save_1/RestoreV2_47/tensor_names"
  op: "Const"
  attr {
    key: "_output_shapes"
    value {
      list {
        shape {
          dim {
            size: 1
          }
        }
      }
    }
  }
  attr {
    key: "dtype"
    value {
      type: DT_STRING
    }
  }
  attr {
    key: "value"
    value {
      tensor {
        dtype: DT_STRING
        tensor_shape {
          dim {
            size: 1
          }
        }
        string_val: "stackConv/weights"
      }
    }
  }
}
node {
  name: "save_1/RestoreV2_47/shape_and_slices"
  op: "Const"
  attr {
    key: "_output_shapes"
    value {
      list {
        shape {
          dim {
            size: 1
          }
        }
      }
    }
  }
  attr {
    key: "dtype"
    value {
      type: DT_STRING
    }
  }
  attr {
    key: "value"
    value {
      tensor {
        dtype: DT_STRING
        tensor_shape {
          dim {
            size: 1
          }
        }
        string_val: ""
      }
    }
  }
}
node {
  name: "save_1/RestoreV2_47"
  op: "RestoreV2"
  input: "save_1/Const"
  input: "save_1/RestoreV2_47/tensor_names"
  input: "save_1/RestoreV2_47/shape_and_slices"
  attr {
    key: "_output_shapes"
    value {
      list {
        shape {
          unknown_rank: true
        }
      }
    }
  }
  attr {
    key: "dtypes"
    value {
      list {
        type: DT_FLOAT
      }
    }
  }
}
node {
  name: "save_1/Assign_47"
  op: "Assign"
  input: "stackConv/weights"
  input: "save_1/RestoreV2_47"
  attr {
    key: "T"
    value {
      type: DT_FLOAT
    }
  }
  attr {
    key: "_class"
    value {
      list {
        s: "loc:@stackConv/weights"
      }
    }
  }
  attr {
    key: "_output_shapes"
    value {
      list {
        shape {
          dim {
            size: 1
          }
          dim {
            size: 1
          }
          dim {
            size: 8
          }
          dim {
            size: 50
          }
        }
      }
    }
  }
  attr {
    key: "use_locking"
    value {
      b: true
    }
  }
  attr {
    key: "validate_shape"
    value {
      b: true
    }
  }
}
node {
  name: "save_1/RestoreV2_48/tensor_names"
  op: "Const"
  attr {
    key: "_output_shapes"
    value {
      list {
        shape {
          dim {
            size: 1
          }
        }
      }
    }
  }
  attr {
    key: "dtype"
    value {
      type: DT_STRING
    }
  }
  attr {
    key: "value"
    value {
      tensor {
        dtype: DT_STRING
        tensor_shape {
          dim {
            size: 1
          }
        }
        string_val: "stackConv/weights/ExponentialMovingAverage"
      }
    }
  }
}
node {
  name: "save_1/RestoreV2_48/shape_and_slices"
  op: "Const"
  attr {
    key: "_output_shapes"
    value {
      list {
        shape {
          dim {
            size: 1
          }
        }
      }
    }
  }
  attr {
    key: "dtype"
    value {
      type: DT_STRING
    }
  }
  attr {
    key: "value"
    value {
      tensor {
        dtype: DT_STRING
        tensor_shape {
          dim {
            size: 1
          }
        }
        string_val: ""
      }
    }
  }
}
node {
  name: "save_1/RestoreV2_48"
  op: "RestoreV2"
  input: "save_1/Const"
  input: "save_1/RestoreV2_48/tensor_names"
  input: "save_1/RestoreV2_48/shape_and_slices"
  attr {
    key: "_output_shapes"
    value {
      list {
        shape {
          unknown_rank: true
        }
      }
    }
  }
  attr {
    key: "dtypes"
    value {
      list {
        type: DT_FLOAT
      }
    }
  }
}
node {
  name: "save_1/Assign_48"
  op: "Assign"
  input: "stackConv/weights/ExponentialMovingAverage"
  input: "save_1/RestoreV2_48"
  attr {
    key: "T"
    value {
      type: DT_FLOAT
    }
  }
  attr {
    key: "_class"
    value {
      list {
        s: "loc:@stackConv/weights"
      }
    }
  }
  attr {
    key: "_output_shapes"
    value {
      list {
        shape {
          dim {
            size: 1
          }
          dim {
            size: 1
          }
          dim {
            size: 8
          }
          dim {
            size: 50
          }
        }
      }
    }
  }
  attr {
    key: "use_locking"
    value {
      b: true
    }
  }
  attr {
    key: "validate_shape"
    value {
      b: true
    }
  }
}
node {
  name: "save_1/restore_shard"
  op: "NoOp"
  input: "^save_1/Assign"
  input: "^save_1/Assign_1"
  input: "^save_1/Assign_2"
  input: "^save_1/Assign_3"
  input: "^save_1/Assign_4"
  input: "^save_1/Assign_5"
  input: "^save_1/Assign_6"
  input: "^save_1/Assign_7"
  input: "^save_1/Assign_8"
  input: "^save_1/Assign_9"
  input: "^save_1/Assign_10"
  input: "^save_1/Assign_11"
  input: "^save_1/Assign_12"
  input: "^save_1/Assign_13"
  input: "^save_1/Assign_14"
  input: "^save_1/Assign_15"
  input: "^save_1/Assign_16"
  input: "^save_1/Assign_17"
  input: "^save_1/Assign_18"
  input: "^save_1/Assign_19"
  input: "^save_1/Assign_20"
  input: "^save_1/Assign_21"
  input: "^save_1/Assign_22"
  input: "^save_1/Assign_23"
  input: "^save_1/Assign_24"
  input: "^save_1/Assign_25"
  input: "^save_1/Assign_26"
  input: "^save_1/Assign_27"
  input: "^save_1/Assign_28"
  input: "^save_1/Assign_29"
  input: "^save_1/Assign_30"
  input: "^save_1/Assign_31"
  input: "^save_1/Assign_32"
  input: "^save_1/Assign_33"
  input: "^save_1/Assign_34"
  input: "^save_1/Assign_35"
  input: "^save_1/Assign_36"
  input: "^save_1/Assign_37"
  input: "^save_1/Assign_38"
  input: "^save_1/Assign_39"
  input: "^save_1/Assign_40"
  input: "^save_1/Assign_41"
  input: "^save_1/Assign_42"
  input: "^save_1/Assign_43"
  input: "^save_1/Assign_44"
  input: "^save_1/Assign_45"
  input: "^save_1/Assign_46"
  input: "^save_1/Assign_47"
  input: "^save_1/Assign_48"
}
node {
  name: "save_1/restore_all"
  op: "NoOp"
  input: "^save_1/restore_shard"
}
versions {
  producer: 17
}
